backup/lab1-1_model.pt (torch_old, 262578 bytes, 10 tensors)

weight f4 [6, 3, 5, 5]
00000000: 7acc 463d 0600 9fbe ecb5 90be 3dc2 f9bd
00000010: 3141 963d df67 90be fa47 debe 5200 04bf
00000020: 764f eebe c167 b7be 46f1 3abe 7503 03bf
00000030: 65ae 14bf aba1 c6be e3eb 43be decb 813e
00000040: 085f b4bd 80e5 16be 9d15 13be b844 063e
00000050: ba0f 023f 78f5 f83e 8172 f23e 1b67 af3e
00000060: fa8f c73e b81f 3bbd e00d 173e c2e2 513e
00000070: c9a1 003e 6fc2 18bb f9b8 c23d cf5b cb3e
00000080: da14 953e c246 933e 84cc 983b 9ae3 073d
00000090: 097d 4d3e c9bc 6cbc 9a23 65bd dfe5 063e
000000a0: de0c 56bd 3ebe aabe e81a 8abe 4d6f 05be
000000b0: 42ec b7bc 92f9 3bbe 05a5 fcbd 3214 51be
000000c0: b89a 2dbe b215 5fbe 21cf a1be 9a10 283e
000000d0: 9426 143e a737 2c3d 05c7 b3be 2c9a 173e
000000e0: 565e 0e3f a39c 193f c643 023f 7224 a63d
000000f0: 724a 8e3d 28cc de3e ff15 103f 16b6 bd3e
00000100: 2471 693e 5abf dcbd 041b b8bd ad58 aebd
00000110: 4980 adbd 9a0a 463d 940d 90be 0de7 03be
00000120: 6c11 0c3c 5014 0cbe 74be 0fbe 4c8c a53c
00000130: 6d29 4f3e 002a 3e3e e7a0 773e 6c70 8d3e
00000140: 63f9 d2bd 823e 5f3e c9eb c53e 03d8 da3e
00000150: b8f8 dd3e 650b c1bd bbb6 bc3e b8bc 3f3f
00000160: 9462 b43e 7d89 923d e661 ccbd 2dbb c83d
00000170: b6d1 ddbd cabc 92be 19e2 59be 5cde 5ebe
00000180: 2f72 22bf e727 0dbf 4fac ecbe f25b 78be
00000190: 3480 a83e 631f 813e ee85 073e f6a1 0bbe
000001a0: bd56 82be 4c11 ddbe c8ed 66be 5e92 53be
000001b0: 6c21 50be 33a8 3dbe 2f01 973b 30f8 653e
000001c0: ddb2 a03d 5fcc 9dbc 8d2b 21bd 6229 9a3e
000001d0: 6582 d63d 3c6a a8be 2897 cebe 6a4d 3bbe
000001e0: 1b56 de3b 2ce4 e9be 6aaf edbe b68a a9bd
000001f0: 6760 343d 520a ca3e 079d 133c 86af 28bd
00000200: 6933 30be e0bd c9bd e55e aabe 5723 cfbe
00000210: 10e4 7ebe 6477 96bb e46d 16bd a3c5 753b
00000220: 2ee1 fc3d e71e 5a3e 2ef6 953e 730d 903d
00000230: 92e1 a53e 4ad7 9b3e 59de e13b 46b5 243d
00000240: 5f95 a43d 9d2d ea3c 9bb4 40be dfc2 0abe
00000250: 89cb 4e3e 6abe 6c3e be40 053e 7cc9 843c
00000260: ba0d cc3e 5d4f e7be 24b0 503e 73aa 8dbd
00000270: 5654 9fbe 4b84 ca3e 75e2 50bf 435e 8d3e
00000280: 28ee 053b 087f a2be 1cc1 3d3f 184b d4be
00000290: 1daf 893e b15d 12bd 7bef 04bf 26ba 823e
000002a0: 64bf 47bf e592 9e3e ff76 b73d 47ed 263e
000002b0: 28f4 ef3e ebf9 92be e6d9 553e 2404 3ebe
000002c0: 223a 0cbe a3ee 3b3d 11d5 58bf 4d82 903d
000002d0: ff97 183e 594e b93d 2090 2e3f 5dcb 6dbf
000002e0: 33c3 0b3f f13f 9a3e e097 273d 7886 9d3f
000002f0: 3aae efbe f824 043f 9692 c5bd bf44 a9be
00000300: 2d8b 7f3e d03a 39bf f395 293e aede 81bd
00000310: 6af9 e7bd 12af cf3e 2d6a 25bf a3d4 e73d
00000320: b57e 9cbd 5363 73be 090c 2f3e d5f9 eabe
00000330: 24c5 873d 2977 353e 080c 57be f265 063f
00000340: 73c3 13bf 6ecd d23e 2e33 1c3e a414 52be
00000350: 2a04 673f 08d2 b3be 9d2d d53e 5996 0a3c
00000360: 0331 09bf 29aa 163e c31e 06bf de16 993d
00000370: 036b ac3c 5ec0 babc 0b45 0f3f b64f d9be
00000380: 0f6c 803d 8f46 8a3e 7a4b 543e 967b 903d
00000390: 8bcc 32be 11d9 9ebe 7e49 eb3d 46b5 733d
000003a0: 1d19 a73d f922 8a3e 3180 493d 0041 f33d
000003b0: 9f2c f33d 6358 2b3e 5f20 c03b c17c 3f3e
000003c0: 5f49 61bd 11f6 96bc b0be 0b3d 565d 0ebe
000003d0: 1ea5 7f3d 0eba 1dbe 8cff a3bd 9821 4cbc
000003e0: 1084 bebd f73c c4bb 78dc a13c 105e 143c
000003f0: 46e9 183d 43b8 1abe b122 6bbe 799d bdbe
0.048534848 -0.31054705 -0.28263795 -0.12195251 0.07336653 -0.28204247 -0.4341429 -0.5156299
-0.46545 -0.35821345 -0.18256101 -0.5117715 -0.58078605 -0.38795218 -0.19132952 0.2535085
-0.08807188 -0.14735985 -0.14363714 0.13112152 0.50805247 0.48624778 0.47352985 0.3425835
0.38977033 -0.045684546 0.14751387 0.20496657 0.12561716 -0.002330925 0.09507937 0.39718482
0.2911747 0.2876492 0.004663052 0.033176042 0.20067228 -0.014449307 -0.055942155 0.13173626
-0.052258365 -0.33348268 -0.26973653 -0.13030739 -0.022451524 -0.18356922 -0.123361625 -0.2041786
-0.16953552 -0.2178562 -0.3160334 0.16412583 0.14467841 0.04204526 -0.35112777 0.14804906
0.55612695 0.60004634 0.50884664 0.0811242 0.06947793 0.43515134 0.56283563 0.37052983
0.22797066 -0.10778685 -0.08989528 -0.08513007 -0.08471734 0.048349954 -0.2813536 -0.12881108
0.008549076 -0.13679624 -0.14037496 0.0202085 0.20230646 0.18570709 0.24182473 0.27624834
-0.10301473 0.21801189 0.38656452 0.4274293 0.4335382 -0.094260015 0.36858162 0.74897337
0.3523146 0.0715513 -0.0997961 0.09801326 -0.10831015 -0.2865966 -0.21277656 -0.21764511
-0.6345548 -0.5513901 -0.4622521 -0.24253824 0.3291031 0.2521926 0.13234684 -0.13636002
-0.254568 -0.4317726 -0.22551644 -0.20661303 -0.2032525 -0.18521194 0.0046082954 0.22457957
0.078466155 -0.01926249 -0.039348174 0.30109698 0.104740895 -0.3289355 -0.40349698 -0.1829125
0.006785167 -0.45681894 -0.46422893 -0.0827841 0.04403725 0.39461 0.009009606 -0.041183017
-0.17207111 -0.09850669 -0.33275524 -0.4045665 -0.24891686 -0.004591869 -0.036725894 0.0037501834
0.12347637 0.21300851 0.29289383 0.07033815 0.3239866 0.3043769 0.006892961 0.04021194
0.08036303 0.028586203 -0.18818896 -0.135509 0.2019483 0.23119512 0.13012978 0.016209356
0.39854223 -0.45177737 0.20379692 -0.06917276 -0.3111903 0.39554057 -0.81595546 0.27610978
0.0020436142 -0.31737542 0.74122787 -0.41463542 0.26891413 -0.035733882 -0.5192792 0.25532645
-0.78026414 0.30971447 0.089582436 0.16301452 0.46865964 -0.28706297 0.20883903 -0.18556267
-0.13694051 0.04588188 -0.84700114 0.07056103 0.14901732 0.09048147 0.6818867 -0.9288843
0.54594725 0.30126908 0.040916324 1.2306662 -0.46812612 0.5161891 -0.096471 -0.33060262
0.24955435 -0.72355366 0.16561107 -0.06341301 -0.11326869 0.40563256 -0.64615136 0.11319854
-0.07641355 -0.23768358 0.17094435 -0.45893732 0.066293985 0.17721237 -0.21000683 0.52499306
-0.57720107 0.41172355 0.15253899 -0.20515686 0.9024073 -0.3512118 0.41636363 0.008458697
-0.5359041 0.14713348 -0.5239069 0.07475065 0.02104712 -0.022796806 0.55964726 -0.42443627
0.062706105 0.27006957 0.20731917 0.07054822 -0.1746084 -0.31024984 0.11488627 0.059499048
0.08159087 0.26979807 0.04919452 0.11877632 0.11873745 0.16732936 0.005863234 0.18699934
-0.055001613 -0.01842788 0.0341174 -0.13902792 0.062413327 -0.15403005 -0.08007726 -0.012459181
-0.09302533 -0.005988713 0.019758448 0.009055629 0.037331842 -0.15109353 -0.22962452 -0.37034205

bias f4 [6]
00000000: eddc b13e 9ed2 35bf 9e90 9abd f141 bb3f
00000010: 534b 833e 34fd 23be
0.34738865 -0.710245 -0.07547115 1.4629499 0.25643405 -0.16014558

weight f4 [16, 6, 5, 5]
00000000: efd8 12bd 4fff 55bd 08e4 18bd f69d b3bd
00000010: ca53 983c 9784 e93d 4eb3 cd3c 9be5 ce3d
00000020: 1a2c a33d b8e0 f6bd 42d3 0b3e 609f 05bd
00000030: 1bc2 21be 7150 07be 0627 94bd ed90 4e3d
00000040: e925 23be d79d 81be f854 dfbd 70f9 023e
00000050: 706d 223e fac7 36bd e5d7 9e3d b770 523e
00000060: 4505 8a3e f12d d23c 5bfd 473e a121 0d3e
00000070: ce62 9fbd 4851 9cbd 594c f43d 3dc6 143e
00000080: d57d f5bb 6688 2abe 0341 0cbe 7c93 fa3d
00000090: 3db0 59bd 234b 6cbd a2ba 26bc c7f3 af3c
000000a0: 786c debd 9110 c8bc 73ce e43c fbb9 a7b9
000000b0: 6d2d 3bbb 3c97 25be fa19 a33c a81f 8a3d
000000c0: fb54 003e 5153 05bd 832f 943d c5d3 583c
000000d0: a007 06bd e568 1ebd 0645 a33c f29d 3cbd
000000e0: a3b4 e9bd 9cee 12be 20ba e5bd 373c 4cba
000000f0: 8f47 11be da66 7fbe ab7f 80be eb08 45be
00000100: e98d 5abc e315 74be e94d 94be 25e7 10be
00000110: 0689 38be d47d 75bc fee7 873d 43d2 4d3c
00000120: 5ebb a4bd 4bcb 1bbe c2eb 3bbe 393a 84be
00000130: d61f 08be 4306 b6bd d88f 10bd 505f 3b3e
00000140: 9222 f9bd a69a 72be 4cea 30be 5d73 d63b
00000150: 9ea2 a33e ec99 abbe 2bde 7cbe 9d70 99ba
00000160: 7fae f93d ef9f c93e 0543 b4be 4dfd 55be
00000170: 2d97 083e 5474 883e 45b6 c33e cb39 ddbd
00000180: 18c1 20bc 0673 9b3e c28e 9a3e a022 3d3e
00000190: 91f3 c2bc 3072 82bd d0f1 983c a01c a23d
000001a0: db1e 223e 5c18 f8bc 1ba6 41bd 1050 dc3d
000001b0: 35b2 7b3e 90f2 4b3e f502 f73b 7554 1b3d
000001c0: 0b7f 8f3e 67ed 9f3e 5933 08be 6bef 303e
000001d0: d5e3 2c3e dbfc 983e bd91 bf3b 7794 c3bd
000001e0: 15ae 803e cc51 f03d 94cb ae3d 075a 8a3d
000001f0: 7b28 9a3c 682b 90bb 5041 6d3d 91b8 39bd
00000200: 9a0c 2fbe f703 79bd 7898 003e 767d 433d
00000210: 9ee0 18be f78c 40be a2ad e4bd 3347 3c3c
00000220: d488 3fbe e1a9 acbe 4d3d 84be 384b 003e
00000230: f532 59be 0af8 a8be 8fcf 68be c105 50bc
00000240: 4c32 ca3d de04 d8be a997 9fbe 201a 25bd
00000250: a990 063e 873d 2b3e 6c63 e73d 258b bd3d
00000260: ef16 213d 0a18 473d a237 b8bc 2660 243d
00000270: 9cb3 1a3d ae41 3fbd 23cb 2bbd 54e4 483d
00000280: b9fa e5bd 7cf6 6b3b 8e64 733d ca82 6d3d
00000290: 2155 6a3d d155 153d 7978 2c3e 1fec 8b3d
000002a0: 078e 8d3d 5e50 1a3d d3f3 993d 55a7 163d
000002b0: cc02 893d 6c93 953d 5b14 8ebd a47d 983d
000002c0: a33f c1bd ee49 60bc b738 113d ff4d ba3d
000002d0: f940 913d 022c c9bc 57f6 a23b c39f b73c
000002e0: 05c1 523e c5ee 2c3b 1979 a23d e6ad 403e
000002f0: a72a 553d f2ea 553e de40 84bc ee8f d6bc
00000300: e73c 7f3d 7450 363e b639 903e d766 d23d
00000310: 705f a33e e3b6 ce3e c2a2 683e 305e 4d3d
00000320: 5e51 cfbd ee5c f33d 1a44 343e 7336 a63d
00000330: dd92 98bd 2c77 923d 0f64 45bb ea26 fb3d
00000340: 30d8 a33d b4d5 083e e11c 133e 4db4 873c
00000350: 489f 213e 1b7d 493d a088 2e3e b8c1 a63d
00000360: b316 223e 1ae6 313e e799 0e3e 20a7 513e
00000370: 9318 93bd 6999 44bd 5b9f 103e b65f fa3c
00000380: 64a8 d03d 6305 0a3e 2465 773d 0bd6 7f3c
00000390: 614b b23d e5d6 a33d 71fe 6a3d de9e 313c
000003a0: a360 51bc 4eb4 8abd af87 59be fa16 533c
000003b0: 7d75 97bd 0909 c93b ba9e c7bd 5427 7dbe
000003c0: e8d3 e4bd 7ea4 fbbd ff2d e5bd 3f8f 82be
000003d0: ad42 2cbe 2f30 743d 6c5c 8fbd 61c5 8c3c
000003e0: d2ae d3bd 78d6 1fbe f784 b53d 52ed 823d
000003f0: e36f 68bb c76c 763d fe79 3b3e 5ffe 5c3c
-0.035851415 -0.052245434 -0.037326843 -0.08770363 0.018594641 0.11402243 0.025109913 0.101023875
0.07967396 -0.120545805 0.13654807 -0.032622695 -0.15796702 -0.1321428 -0.07234006 0.05043118
-0.1593243 -0.25315735 -0.109048784 0.12790465 0.1586206 -0.044624306 0.07756022 0.2055081
0.26957145 0.025656672 0.19530241 0.1378236 -0.077825174 -0.07632691 0.11928625 0.14528747
-0.007491807 -0.16653594 -0.13696675 0.12235162 -0.05314659 -0.057688843 -0.010176333 0.021478547
-0.108605325 -0.024421962 0.027930474 -0.00031991288 -0.0028561011 -0.16170973 0.019909848 0.06744319
0.12532417 -0.03255016 0.07235625 0.013234084 -0.032722116 -0.038674254 0.019930374 -0.046049066
-0.11411407 -0.14348835 -0.11217141 -0.0007790955 -0.14187454 -0.24941579 -0.25097403 -0.19241683
-0.013339498 -0.23836474 -0.2896569 -0.14150675 -0.1802102 -0.014983613 0.06636046 0.012562337
-0.0804355 -0.15214269 -0.18351653 -0.2582567 -0.13293394 -0.08887913 -0.03529343 0.18298078
-0.12164797 -0.23691806 -0.17276877 0.006544514 0.31960005 -0.3351587 -0.24694125 -0.0011706535
0.121914856 0.39379832 -0.35207382 -0.20897408 0.13338919 0.2665125 0.38224998 -0.10802039
-0.009811662 0.30361193 0.3018704 0.1847024 -0.023797782 -0.06369436 0.018669993 0.07915616
0.15832083 -0.030285053 -0.04727755 0.10757458 0.245797 0.19916749 0.0075381943 0.03792234
0.28026614 0.3123581 -0.13300838 0.1727883 0.16883786 0.29880413 0.005846231 -0.09549802
0.25132814 0.117343515 0.08534923 0.067554526 0.01881813 -0.0043997057 0.057923615 -0.045342032
-0.17094651 -0.060794797 0.12558162 0.04772707 -0.14929435 -0.18803774 -0.1116593 0.011491585
-0.1870454 -0.33723357 -0.2582802 0.12528694 -0.21210845 -0.3300174 -0.22735427 -0.012696684
0.098728746 -0.42191213 -0.31170395 -0.040308118 0.13141121 0.1672269 0.1129826 0.09255055
0.03932851 0.04860691 -0.022487465 0.040130757 0.037768945 -0.046693496 -0.041941773 0.049045876
-0.11229462 0.003600507 0.05942207 0.05798606 0.05721009 0.036458794 0.16842832 0.06832146
0.06911855 0.0376743 0.07517209 0.036780674 0.066899866 0.07303509 -0.06937476 0.07445839
-0.09435966 -0.013689501 0.035454478 0.09096908 0.07092471 -0.024557117 0.0049732137 0.022415048
0.20581444 0.0026387435 0.07933254 0.18816337 0.05204263 0.20890406 -0.016144212 -0.026191678
0.06231394 0.17804128 0.2816903 0.102735214 0.3190875 0.40373906 0.22718337 0.050138652
-0.101229414 0.11882959 0.17604104 0.08115854 -0.07449887 0.071516365 -0.0030119454 0.12263282
0.08000219 0.13362771 0.14366485 0.016565466 0.15783417 0.049191575 0.17044306 0.08142418
0.15828972 0.17372933 0.13925897 0.2047391 -0.071824215 -0.047997866 0.1412329 0.030563217
0.10188368 0.13478617 0.06039919 0.015614997 0.08705784 0.07999972 0.05737156 0.0108411
-0.012779388 -0.06772672 -0.21243165 0.012883896 -0.07395456 0.0061351103 -0.097470716 -0.24722034
-0.111732304 -0.12287234 -0.11190414 -0.25499913 -0.1682231 0.059616264 -0.0700005 0.017183961
-0.10336079 -0.15609157 0.08863252 0.063929215 -0.003546708 0.060162332 0.18308255 0.013488381

bias f4 [16]
00000000: 12f8 813e af62 743e 799e 46bf b18e c3bd
00000010: a0ad 403f 9874 d5be 2eeb 6c3f 4bb4 073f
00000020: efed 05bf c1d5 01bf 87cc 92bf 1219 703f
00000030: 2cad 1f3e 8cb1 8d3e f8c4 1c3f 7c2a 00bf
0.25384575 0.2386577 -0.7758556 -0.095487006 0.7526493 -0.41690516 0.92546356 0.5300948
-0.5231618 -0.5071679 -1.1468667 0.93788254 0.15593404 0.2767452 0.6123805 -0.50064826

weight f4 [120, 400]
00000000: 3cf7 d43c 239f 553d e2a2 253c 21b5 9abc
00000010: 21a4 443c f29a 413d 70e9 b03c 89e1 153d
00000020: 65dc 1c3d 1233 d7bc 85ff 94ba 711c a73c
00000030: 5b6c a4bb 5d8b 2f3b 4504 85bc 02a7 13bd
00000040: 0e08 7ebd 8155 6bbd d131 1a3b a5a3 553c
00000050: 3118 773d e077 12bc 27c0 9dbd c0d8 22bd
00000060: 05d6 0bbd f170 adba 88b3 173d 08eb 583c
00000070: 3abe 513c 9a6b 57bd f8b2 b83b 71fa bd3c
00000080: 68b2 573c 86ad 523d 3d83 91bc 64a9 27bd
00000090: f63d 7f3d b609 ad3d 7e4b 783d 298d 213d
000000a0: b32d e7bb 40fd 483d 5b82 9e3d bd72 653d
000000b0: a0be e4bb 75ea a5bd 78a6 e23c 3e6f 133c
000000c0: ddf0 de3b 7be7 0bbd 645e 55bb 5aff 59bc
000000d0: c17c 41bd c553 953b 3811 28bc 0e6a 6bbb
000000e0: 1cf4 2bbd 6bfb 1ebd 5abc a63c 8d26 7d3c
000000f0: 4a2b 453d 789e 4abd 15ba 12bd 4d15 10bd
00000100: 022e 6abc b523 ab3d 5afb 023d 5f56 fbbc
00000110: 819f 473c 857e 013d 3bf6 c13c c3b0 47bc
00000120: 9aa5 d3bb 1143 cbbb 8468 bd3d a820 563d
00000130: 59c5 03bd 40b7 8cbd abfa 5cbd 9bca a93b
00000140: 30bb 10bd 4816 ea3c dd96 33bd 6770 2c3d
00000150: 18d5 01bd 7481 0d3d 56fc 0bbd 9731 4cbc
00000160: 8155 b93d 8a36 153d 63dd 56bd 10cb 80bc
00000170: 3473 1a3a 0fc8 0b3e 0c94 6a3d 1cce d1bc
00000180: a6e4 c9bd c91b a7bd 1559 2b3c e885 76bd
00000190: dafe cb3c 279f a3bd 6847 1e3d 523f 1b3d
000001a0: fce5 a13c 5fc9 22bd 4a81 81bd 6983 16bd
000001b0: 6f96 eabc a19e f83c 39ea 44bd 2fe4 073d
000001c0: 0798 28bc b5f4 d0bc 3502 45bd 6b9e 52bc
000001d0: 26de af3b fcb3 0ebc 954a 01bd c55f e6bc
000001e0: ca81 a53d 5a5c 26bd c43d 94bb 37ed e2bb
000001f0: 6a4a bcbd 7887 84bc aefe 3e3d 770b 513c
00000200: 4227 f3bc 52c7 993c 9b41 c1bb 7fe8 dbbb
00000210: 8338 08bd 6dfb 80bd 7e3e 61bd 87c8 4b3d
00000220: 2fdf f9bc a779 89bd 5a0d 633c 305f 793b
00000230: bea8 f1bc e1d3 f0bc d442 053c a593 a63d
00000240: 26fd 993d 9958 13bd 8195 03be 6d5f 92bd
00000250: 87bd 843c 7ad9 e13b 83f2 8c3d 3f7f 50bc
00000260: f0e2 8d3d 5ade 6cbc 82eb 243c e032 d23d
00000270: 3ec8 c33c 8c43 833d 124d 043b e354 0d3d
00000280: 5602 173d fc83 093d aad5 00bd 1e5e 4ebd
00000290: 5875 2b3c 6cb7 f2bc 28c8 0cbd 4eeb 1bbc
000002a0: 125c 103c 1a57 30bd a556 aebc 7ace b43c
000002b0: 31d5 93bc dfd3 9bbc c476 a63c c956 5dbc
000002c0: f820 ecbc f312 f73c fe1d ec3b a1bc 483c
000002d0: d155 3bbd 72bd 1f3c 2311 c8bc 7be3 023c
000002e0: 20bd be3b 9583 ae3c 13af 7c3a d3c2 123d
000002f0: 9937 bf3c 55fa cd3c d53e 653b 61f8 a63d
00000300: 038c 7f3d 90f9 58bd 9e9b 01bc 0b01 80bc
00000310: 29bc f23c 66b1 2cbd c289 d4bd 270f 80bd
00000320: 2a42 bc3c 6f25 253c de41 36bc 034a f3bc
00000330: cf9e 963c a3c2 053d 0be9 2abd 9011 213d
00000340: 0750 11bc 7675 153b 2f5e 39bb e950 5fbd
00000350: ea71 623c 1707 3ebd 2d99 45bd c435 86bc
00000360: a037 3b3d 30cf 8bbc 37c8 6fbd 3f25 94bc
00000370: c07a e83c a8f1 943d 94be 893d 19ae ed3c
00000380: 4ada 803c 1655 fcbc 179c 8abc 6425 31bd
00000390: 40da 61bc 0942 073d 644a bf3c cf73 87bd
000003a0: 31cf 89bd d803 21bd 57b9 1b3d 7b23 8bbc
000003b0: cae0 73bc f1b8 ad3a 3d07 803c 6edf 6d3d
000003c0: 21a8 623d 515d d8bc c247 113c d97d e93b
000003d0: 6e10 683d 712e 243d 75f3 123d b9b7 5938
000003e0: 0911 093d 0b9e f33c 692d 623d 94e7 353c
000003f0: 4b5d d7bc 5af2 85bd 3489 8ebd b1f7 463d
0.025996797 0.052153718 0.010109635 -0.018885197 0.012002022 0.047266908 0.021595687 0.03659204
0.038296122 -0.02626947 -0.0011367655 0.020399304 -0.0050178 0.0026785948 -0.016237387 -0.036047943
-0.0620194 -0.05745459 0.0023528228 0.013039504 0.060325805 -0.008939713 -0.07702666 -0.03975749
-0.03413965 -0.0013232512 0.03703645 0.01323963 0.012801701 -0.05259285 0.005636569 0.023190709
0.013165094 0.051435016 -0.017762775 -0.040933028 0.06231495 0.08449118 0.06061887 0.03944126
-0.0070550083 0.049069643 0.07739707 0.056017626 -0.006980732 -0.0810136 0.02766727 0.00899869
0.0068036155 -0.034156304 -0.0032557482 -0.013305509 -0.047238115 0.0045571052 -0.0102580115 -0.0035921368
-0.041980848 -0.03881399 0.020353485 0.015451086 0.048136987 -0.049467534 -0.035821993 -0.035176564
-0.014293196 0.0835642 0.03197799 -0.030680833 0.012184025 0.0316148 0.023676982 -0.012188139
-0.00645895 -0.0062030633 0.092484504 0.052277237 -0.032170627 -0.0687089 -0.053949993 0.005181623
-0.035334766 0.028575078 -0.043845046 0.042099383 -0.031697363 0.034547284 -0.034176193 -0.012462995
0.09049512 0.036428966 -0.052457225 -0.015721828 0.00058918004 0.13650535 0.057270095 -0.025610976
-0.09858064 -0.081595965 0.0104582505 -0.060186297 0.024901796 -0.0798934 0.038642317 0.037902184
0.019762985 -0.039742824 -0.06323488 -0.036746416 -0.028636185 0.030349078 -0.048074935 0.033176597
-0.010290152 -0.02550731 -0.048097808 -0.012855153 0.0053670583 -0.008709904 -0.031565268 -0.028121838
0.08081396 -0.040615417 -0.0045239646 -0.006925251 -0.09193881 -0.016177878 0.0466296 0.012759081
-0.029681806 0.018771801 -0.0058977134 -0.0067110653 -0.03325702 -0.06297956 -0.054991238 0.049751785
-0.03050193 -0.067126565 0.013858164 0.003805112 -0.029499408 -0.029397907 0.008133609 0.0813363
0.07518987 -0.035973165 -0.1285 -0.07147107 0.016203655 0.0068923803 0.06882193 -0.01272565
0.069280505 -0.01445731 0.010065915 0.1026361 0.023899194 0.06409368 0.002018754 0.034504782
0.036867462 0.033573136 -0.031453766 -0.050382726 0.010464989 -0.029628478 -0.03437057 -0.00951655
0.008811014 -0.043051817 -0.02128155 0.022071112 -0.018045994 -0.019021926 0.020320304 -0.013509461
-0.028824314 0.030160403 0.007205724 0.012252004 -0.045736138 0.009749757 -0.024422234 0.007988806
0.0058208853 0.021302978 0.0009639125 0.03583033 0.02334194 0.025143782 0.0034980078 0.08152843
0.062389385 -0.052972376 -0.007910637 -0.015625497 0.029630737 -0.042161368 -0.10377838 -0.0625289
0.022980768 0.010079726 -0.011124102 -0.029698377 0.018386273 0.032656323 -0.041726153 0.03932339
-0.008869178 0.0022805608 -0.0028284898 -0.05452052 0.013821105 -0.04639348 -0.048241783 -0.01638306
0.045707345 -0.017066568 -0.05854055 -0.018084167 0.028378844 0.07272655 0.06725803 0.02901368
0.015729088 -0.03080229 -0.016920133 -0.04324855 -0.013784945 0.03302196 0.023350902 -0.066138856
-0.06728972 -0.039310306 0.03801855 -0.016984692 -0.014885137 0.0013253969 0.015628451 0.058074407
0.05533612 -0.026411684 0.008867206 0.007125598 0.056656294 0.040083352 0.03587671 5.1907937e-05
0.03346351 0.029738447 0.055219088 0.011102576 -0.026289603 -0.065403655 -0.06959763 0.04857606

bias f4 [120]
00000000: c881 25bd af27 e23c 705f 4a3c 1866 203d
00000010: 5cfa 0b3d 41f8 cd3c a607 0e3d 50b7 74bc
00000020: 54ef 8b3c 862d d73d 6d88 0fbd 59b5 98bd
00000030: 77e2 b43c 7c93 583d 7bf8 aa3d c009 f43d
00000040: 2add 8d3d 18d4 3d3d deb3 393e 550b a93d
00000050: c53e c8bc 62a5 133e e9c2 ce3c 3ac6 86bd
00000060: 9814 f4bb ab1a 3a3e 4dd9 1b3d b59d 4f3e
00000070: 7ac0 a9bc 422d fdbd 8670 393d 24ab 69bd
00000080: 15f1 0f3e fa11 923d 91f9 d1bc 323a 943d
00000090: 7469 933d a86c 41bc 888c 7f3d ca0d b63c
000000a0: f9ac 81bd 2a01 6dbc eb4e c4bc be5d 7cbc
000000b0: 1fdd 3cbd 186c 10bd 3707 9ebc f1d8 813e
000000c0: f3be 823d de5b be3d aa6f c8bc 4357 c0bc
000000d0: a414 8bbd e02d 25bd dd62 1b3e 5558 fabc
000000e0: b813 46be 476d 323e 7a47 3bbe 23f5 5a3d
000000f0: 7674 fe3d e405 4a3e 9c92 0e3d 21f3 a83d
00000100: 66a1 8dbd 600c 46bd 59bf a7bd d9ca 853d
00000110: c262 57be ac30 0cbd 583c c03d 337d bdbd
00000120: 1641 96bc b3bd 18bd 6f8b a43d 0399 423d
00000130: 900f 25be 0f5d 3d3e 0ed7 863d c6d6 e63d
00000140: 6d63 b83d df91 7e3d ff9b ba3c f448 34bd
00000150: bba5 333d b1cc 9d3d 5191 ce3d 772e baba
00000160: 6f33 cb3d a84a 75bd ba7f 493d 7301 823d
00000170: 3131 163e 42fc e13b 010e ac3d 39a7 e9bd
00000180: f253 9e3d 8ad1 39bc 280d 353e c9b8 90bc
00000190: 9cfc 333d 7227 323d ff42 ecbd 3ab3 603e
000001a0: 5e9a 1fbe 855e 523c 9db2 103e 2a86 e6bd
000001b0: ed71 72bc dfb2 873b 6f33 a6bb 4302 d73d
000001c0: 21bd 86bd 96cc e13b a9c4 4f3e b948 7b3d
000001d0: 545f f0bd d50f d3bc 51e1 05be 894b 023e
-0.040406972 0.027606813 0.012351856 0.039159864 0.03417431 0.02514279 0.034675263 -0.014936283
0.017081894 0.1050673 -0.035042215 -0.07456464 0.022080643 0.052875027 0.08348175 0.11915922
0.06926949 0.046344846 0.1813502 0.082541145 -0.024443993 0.14418557 0.025239425 -0.065807775
-0.007448744 0.18174236 0.03804903 0.20275004 -0.020721663 -0.12362148 0.045273326 -0.057047978
0.14056809 0.07132335 -0.025631698 0.072376624 0.07197848 -0.011805691 0.06238988 0.022223372
-0.0633182 -0.01446561 -0.023963412 -0.015403209 -0.046109315 -0.035259336 -0.01929055 0.25360826
0.06384077 0.09294866 -0.024467308 -0.02347911 -0.06791046 -0.040326953 0.15174432 -0.030559698
-0.1934346 0.17424498 -0.18288985 0.053456437 0.12424557 0.1972881 0.034807786 0.08249498
-0.0691555 -0.048351645 -0.081907935 0.06532831 -0.21033767 -0.034226105 0.0938651 -0.092523955
-0.018341582 -0.037290286 0.08034407 0.047509205 -0.16119218 0.1849253 0.06583987 0.112714335
0.09003339 0.062150832 0.022779463 -0.044014886 0.043859225 0.077050574 0.10086311 -0.0014204521
0.099219196 -0.05988565 0.049194075 0.06347933 0.14667203 0.0068965266 0.084011085 -0.11408848
0.07730855 -0.011341462 0.176808 -0.017666237 0.04394208 0.04349465 -0.11536216 0.2194337
-0.1558623 0.012839918 0.14130636 -0.112560585 -0.01479767 0.004141196 -0.0050720493 0.10498478
-0.06579042 0.0068908436 0.20289864 0.06134865 -0.117369324 -0.025764385 -0.13074233 0.12724127

weight f4 [84, 120]
00000000: 947c c5bd c298 023d f60d d33a 7302 7abc
00000010: 88fd 8bbd 67a3 a5bd b960 50bd 894a 303c
00000020: 4e78 60be 6dba 9c3c 35fd d83d 41d6 34be
00000030: 9c3c a4bd 4637 1abd f715 06bd 4ff7 8a3c
00000040: 2bad 833d 9b98 433d 17f9 fd3c 0421 67bd
00000050: 5746 d7bd 5a7a 6bbc d533 bfbd 61b7 6cbd
00000060: 9d4b d53c 9e40 b03d a8ff c5bc 2cca 0d3e
00000070: 8816 293e e966 a23d 1bc0 063e 1a97 003d
00000080: 9e00 013d 9f8f 433d 0b5e abbd ea0d 5fbc
00000090: 9460 db3d 70b8 60bd 4773 173c 0966 8cbd
000000a0: a782 213e eafd cfbc b834 313d 1459 f73b
000000b0: 05f4 8bbb d88c 81bc 35fa 163e 822b 883c
000000c0: 5061 5a3c f48c f63d 7358 863d e7e2 903d
000000d0: 2f6f 8fbd 6701 953d 2938 543d 033a 1fbc
000000e0: 977a 3cbe bf6c 2a3e d59e 67bc cb9f 8a3b
000000f0: 8e16 9cbd 1093 c73d 716d 64bc b50d 583c
00000100: da16 45bb 2d5f 3cbd 1436 1cbe e598 ab3c
00000110: b504 2fbd 8628 ebbd e3c9 a6bd 96f3 24be
00000120: 27fb 02bc 6e09 91bd 0709 4cbd 9a9a d43c
00000130: 5efe 0dbd 49a4 babd 49f6 2b3e d36f 49bd
00000140: a416 e03d 4ea2 d0ba 6fae 46bd 8e01 843d
00000150: d278 99bc dbe5 e7bd d5d3 d33b 6b69 d73d
00000160: cb9e 1bbc 183b aa3d 1b26 873b 683f acbd
00000170: 8c98 88bc 93ce cabc bd04 99bc d384 3ebd
00000180: 51a0 0ebe a1a6 3bbc 2e27 3e3d cf2a 083e
00000190: 8d86 a1bd 52f6 413d 4793 eebd b9cf e2bc
000001a0: ba39 ecbd 752a 8cbd c044 bb3c 4edc 81bd
000001b0: 82b2 87bc 3035 c13d 45a0 ccba b915 16bd
000001c0: c1be 09bd 0d8a 5dbd e543 053d fd13 133c
000001d0: a420 4c3c dc4e 85bd 9a13 c53d 980b 2c3d
000001e0: 64f6 8ebd 0f52 81bd 3773 ebbc b6df 413d
000001f0: b24b adbd 5349 b1bd db8a 25be a1de c7bc
00000200: 1be7 b6bc ee77 ae3c 08fd dc3a ee41 a1bd
00000210: b532 98bd 28a8 103d 86f6 0bbe 8302 d1bd
00000220: cc93 a5bd c45a ddbc 8a6c 85bd b928 f4bd
00000230: 9833 8c3d 66c8 633d f712 83bd a604 2bbc
00000240: c5fc 073e e3a9 493b ecf7 dfbd d7ff 7b3d
00000250: aec6 803c 5a7a 823d 60a3 4f3d cff5 e7bd
00000260: b368 873c a7e1 02bd cf9f 1cbd 419b 81bc
00000270: 6354 453c eba9 df3d 6295 29be 3d9a 8ebc
00000280: 64cd cc3d fee3 143c bc04 cd3b 2b80 82bd
00000290: ba23 453d 3e17 523b 327f 983d f332 cebd
000002a0: 7a71 1b3e fa9f 4cbd 5e2f 9cbd 403f 9e3c
000002b0: bc02 c0bd 6cf1 47bb 888d d2bd f1ca 2aba
000002c0: 684f 163d 339b 9d3d dad9 99bc 3de1 8ebd
000002d0: 9eca a5bd c9d8 37be 35be 10bb ffcb 9abd
000002e0: 9330 fdbd 86a1 8bbd ff73 06bb bf43 3fbd
000002f0: 1365 bd3d cd88 ec3c 90ca 753d fc65 d2bc
00000300: 736a d0bc e543 a83b 9c44 1b3d 29d1 8a3d
00000310: 23d6 023e 49ef 403d 857a 1f3e 3de7 c0bd
00000320: 82e4 043d 430d e6bd d52c 4ebe 1c6f 0d3e
00000330: 94de 0cbe 3969 c6bd 45d5 4eba dd01 8b3d
00000340: 523e f13d 019c 253d 9093 1fbe 01f9 2f3d
00000350: 4c7b 333c a96c 8fbc 3afb 37bc 20f2 d0bd
00000360: 8b77 1cbd 9352 85bc 580b 33bd e0f5 0f3e
00000370: b896 12bc 78cf 9c3c cde4 ba3d 73bf 5b3b
00000380: 3a48 f3bb e6d2 0a3d d8dc 06bd adf7 063e
00000390: 166a 15bd 5c2d 0d3c 9a65 823c 50ff 12be
000003a0: 8be6 bf3d 55b7 733d 9427 563c 2083 583d
000003b0: 13c7 eabd 6f66 af3b e6cd 5b3d 3599 823d
000003c0: 8630 c53d 1343 78bd ebfc 92bd 0615 08be
000003d0: 7b5c a1bd b9a3 06bd 5a42 3fbd b60b 6f3c
000003e0: 34b4 87bc 2a97 753c 3645 18bd 3545 bb3d
000003f0: 97a8 903a 86f2 3bbd 8f09 34bd 55d7 67bd
-0.09642902 0.031883962 0.0016102183 -0.015259373 -0.068354666 -0.08087807 -0.050873492 0.010759958
-0.21920893 0.019131863 0.105951704 -0.17659856 -0.08019373 -0.03765037 -0.03273579 0.016963629
0.064295135 0.047752958 0.031002564 -0.05642797 -0.10511463 -0.014372433 -0.09336058 -0.05779207
0.026037032 0.08606075 -0.024169758 0.13846654 0.16512501 0.07929785 0.1315922 0.0313941
0.03149473 0.04774439 -0.08367547 -0.013614157 0.1071178 -0.054863393 0.009243793 -0.06855399
0.15772496 -0.02538963 0.043263167 0.0075484607 -0.0042710328 -0.01581423 0.14743884 0.016622309
0.013328865 0.120386034 0.06559839 0.07074528 -0.070036285 0.07275658 0.05181137 -0.009718421
-0.1840614 0.16643046 -0.01413699 0.0042304746 -0.076214895 0.09744847 -0.0139421085 0.013186862
-0.0030073435 -0.045989204 -0.15255004 0.02094693 -0.0427291 -0.114823386 -0.081439756 -0.16108546
-0.00799445 -0.07081877 -0.049813297 0.025952626 -0.03466641 -0.09113366 0.16793169 -0.04917891
0.10941818 -0.0015917511 -0.048506197 0.06445609 -0.01873437 -0.11323138 0.0064644613 0.10518154
-0.009498308 0.083120525 0.0041244156 -0.08410531 -0.016674303 -0.024756705 -0.018679017 -0.04651339
-0.13928343 -0.011453302 0.046424083 0.1329758 -0.07886992 0.04735405 -0.11649185 -0.02768694
-0.11534448 -0.068440355 0.022859931 -0.06340848 -0.016564611 0.09433973 -0.0015611729 -0.03664181
-0.033629183 -0.054086734 0.032535452 0.008976934 0.012458954 -0.06509182 0.09622879 0.042003244
-0.06980589 -0.063144796 -0.028741462 0.047332488 -0.08461703 -0.086565636 -0.1616625 -0.02439815
-0.022326997 0.021297421 0.0016860077 -0.07873903 -0.074315466 0.035316616 -0.1366826 -0.10205557
-0.08084831 -0.02702082 -0.06514843 -0.1192183 0.06845778 0.055611037 -0.06400102 -0.01043812
0.13280018 0.0030771426 -0.10935959 0.061523285 0.015719738 0.06370993 0.050692916 -0.11326181
0.016529417 -0.03195348 -0.038238343 -0.015821101 0.012044045 0.10921081 -0.16560891 -0.01740753
0.10000113 0.009087561 0.006256668 -0.06372102 0.048129775 0.003205731 0.074461356 -0.100683115
0.15180007 -0.049957253 -0.07626222 0.01931727 -0.093755215 -0.003050889 -0.10280901 -0.0006515226
0.03669682 0.076956175 -0.018780638 -0.069765545 -0.08095287 -0.1795379 -0.0022086028 -0.075584404
-0.123627804 -0.068179175 -0.0020515916 -0.046695467 0.09247794 0.028873825 0.06000763 -0.025683396
-0.025441384 0.005135047 0.037907228 0.067781754 0.12776999 0.0471032 0.15574081 -0.09419105
0.032444485 -0.11232998 -0.2013429 0.13811916 -0.13756782 -0.096880384 -0.0007890056 0.06787465
0.11779465 0.04043198 -0.15583634 0.042962078 0.010954689 -0.017507868 -0.011229331 -0.10202432
-0.038199943 -0.016274726 -0.04371199 0.14058638 -0.008947067 0.019141898 0.091256715 0.003353086
-0.0074243816 0.033892535 -0.032925457 0.13180418 -0.036478125 0.008616772 0.015917588 -0.14355206
0.093701445 0.05950101 0.01307096 0.052859426 -0.11463752 0.005352787 0.053663157 0.06376878
0.09628396 -0.060610842 -0.071771465 -0.1328927 -0.078789674 -0.03287098 -0.046694137 0.014590194
-0.01656542 0.014989654 -0.03717538 0.091440596 0.0011036572 -0.045885585 -0.04395443 -0.05660184

bias f4 [84]
00000000: 9321 933e 05e7 b93c d76e 0e3f 57fc 133d
00000010: 6a35 3d3e 5e2b 62bd e66b 0ebe d2b8 aa3d
00000020: 4b1f f5ba e318 a13d e6ed 973d 29df bc3d
00000030: d555 83bd 50ae 1cbe 138f 573e a9e1 263e
00000040: a99b 7b39 8f8f 063f 309e c93d 7595 293e
00000050: ac04 c9bd ceab 4bbd b431 ef3e e1bd 8e3e
00000060: 158a be3e 0274 03be 6e36 a6bc 3bcb be3d
00000070: 17e1 cd3d c046 6b3e 1494 afbd 2b5f 4c3e
00000080: ce82 4b3e 4652 4eba 1c19 80bd ccd6 2a3e
00000090: 992d 09bd 7352 5ebc 38f2 d43d 2902 8d3e
000000a0: 4f3c 703e 7f1a 8dbc 9b3c 9b3d 5b88 82bd
000000b0: b6f3 95bc 6808 30be d77d 973e 077a 2bbd
000000c0: fc08 99bd 8747 d93c 58cb 07bc 54b4 8a3d
000000d0: e105 4e3d 8abf 8e3e 580a e1bd 1e53 97bd
000000e0: d1cc 873d f8a6 cf3c 1b4a fa3d 9dcf f4bd
000000f0: 75ee f4bc 9dcc 883e 5478 c63c 458c 4bbd
00000100: d56d debd 830f fe3d b7e5 c13e 6980 24be
00000110: 92c6 32bd a33e 083e 09af 063e 2589 bd3c
00000120: 6b0a 8b3e 9679 a73d 75ad 6b3e 004d aa3e
00000130: 8d29 2c3d 29aa 01bd 7760 e63c ddab acbd
00000140: 7f55 f33e f9e2 5c3e 021b 163e 5dd2 a83e
0.28736553 0.022693167 0.5563788 0.036129322 0.18477407 -0.05521714 -0.13908347 0.08336033
-0.0018701343 0.07866075 0.074184224 0.09222252 -0.064128555 -0.1530087 0.21050672 0.1629702
0.00023995213 0.52562803 0.09844625 0.1656092 -0.09815344 -0.049724393 0.46717608 0.2787924
0.37214723 -0.12837222 -0.020289626 0.09316107 0.10052698 0.22976208 -0.085731655 0.19958179
0.19874117 -0.0007870536 -0.06254789 0.16683501 -0.03349075 -0.013569462 0.10397762 0.2754071
0.23460506 -0.017224548 0.07579919 -0.06373664 -0.018304687 -0.17190707 0.29588196 -0.04186442
-0.07472417 0.026523365 -0.008288227 0.06772676 0.050298575 0.27880508 -0.10988301 -0.073889
0.066308625 0.025348172 0.12221166 -0.119536616 -0.029898861 0.26718608 0.024227299 -0.04969432
-0.108607925 0.124053024 0.3787057 -0.1606461 -0.043646403 0.13305144 0.13152708 0.023136685
0.27156386 0.081774876 0.23015387 0.3326187 0.042031813 -0.031656418 0.02812217 -0.08431218
0.47526166 0.21570958 0.1465874 0.32972994

weight f4 [10, 84]
00000000: df87 cebd 252d fe3c 9aa9 38be 06a4 fe3d
00000010: 0eb5 8fbd 2805 523e 1d3c 213e bb39 9a3d
00000020: 2398 b8bd c6ec b7bd 8cae 983d 7f4c 46bc
00000030: 1066 693d 3ae7 67bc f40b b13d f60d 0bbd
00000040: 5635 73bd 69a1 d7bd 8d69 553d 5242 58be
00000050: 1dce 95bd 7d3f 89bd 4b16 2bbe d867 a73c
00000060: d036 b0bd 3f46 423c 6161 983d 8726 843d
00000070: 72a7 7bbd 007d 803d 008e 2e3e ff44 663d
00000080: 7e01 003e 7566 923d 7d9f 5c3e 3135 0dbe
00000090: 71fa 063c ff40 74bd c4eb 1c3d fd37 43bc
000000a0: e568 5fbd aecd 17be d1bd 003e 54c8 183d
000000b0: 190d 6a3d 21c7 9f3d 4569 0a3c f9ed 55bd
000000c0: 87d6 663e f6df 913d 0287 1d3c 2aa4 1ebe
000000d0: 1024 7dbd 6ea0 db3d a1dc 83bd ceca 20bd
000000e0: 02c1 b4ba c366 99bd d9d9 e0bd e251 a5bd
000000f0: 77e7 063e 9300 87bd 137d abbd 9207 b2bc
00000100: 557d f6bb a777 583e c410 053e 331d 453e
00000110: 71e5 9e3d 158a bb3d aa4e 2e3e 3a98 843d
00000120: c0ae 30be 7d73 17be 4178 953d acc6 1bbe
00000130: 173b 46bd f3f4 ccbc bac2 113d bc2f 973c
00000140: 3d14 c0bd d6c0 6a3e 53b5 b7bd ed77 703d
00000150: fba4 73be 17e7 9b3d e7b8 44bc 8c4e 7a3d
00000160: d28f f0bc 9632 04be bfd0 3a3e d976 e73d
00000170: 9cc2 123c a303 af3d a035 1d3e 8742 603e
00000180: 753a da3d 3b6b 523e 4f40 20be 6bd9 b9bc
00000190: 076d 18bd 92a9 b9be 5e14 0cbe ebb1 68be
000001a0: 880f 60bd 7ca2 ce3d 7d8a 75be e56c eabd
000001b0: 4212 a4bd 393c 22be 92f9 133a 20c6 623e
000001c0: 6fb7 4abd 7aea 88bd 1279 e23a b256 223e
000001d0: 3812 1abe 405a 143d e427 abbc fc53 c03d
000001e0: ba96 e43c d73a 013e f3cf 5ebe dfd3 013e
000001f0: fc4d 2f3d 2c32 783d 2656 b5bd c0c3 513e
00000200: 18d0 823e aecc dfbd 2d60 cabd 8fc5 92bc
00000210: e407 313e 2b97 b1bd 1451 2dbd 343e 4f3e
00000220: 2601 723e 23fc 1abe a389 353e ef1b 1bbe
00000230: 6c17 903d 6d15 ec3b 0ab2 31bd 2ad8 5bbd
00000240: d1b4 833e d4c6 38be c070 173e 6832 5fbd
00000250: 4e7e 0a3e bc04 c3bc 67cc 19be a405 20bd
00000260: 0031 283e aff8 183d 3ca0 1f3a ed69 e7bc
00000270: ea83 41be abb2 9d3d 14ee 66be c1ab 0dbe
00000280: e223 a43d f5a7 e83d 0faa 9b3d e25a 643d
00000290: b27f 703c d59a 86bd 087d 8fbc b05a 89be
000002a0: 0b04 8e3d c25b 03be e0cb 063e fc4d 163e
000002b0: 9c66 ba3d ee35 bb3d 3699 debd 95b3 28bc
000002c0: c91a 3c3e cc0b 82bd afcc 8fbd 7bbc 7dbd
000002d0: 6c55 07be 9f42 5a3e 5a3d 843b 0a3b 793d
000002e0: 0d4d 80bd 245e 143e 35e8 693e fedb af3c
000002f0: 8262 8f3d 1a11 9c3d e317 58bd 77f3 10be
00000300: cb85 13be badb 813e 0059 d83c 112b 8c3d
00000310: 8762 adbd 8ce5 f3bd c24e ddbd 447c 0fbd
00000320: efe9 b93d 6d29 2fbe d8df d6bd 83e3 a13d
00000330: e967 e53d cc78 b5bd e1cb 6c3d 1799 ddbc
00000340: a56d 3f3e ecd4 dfbd 1731 093c 8235 6bbc
00000350: cb43 a4bd 6ce1 f43d ee64 1d3e 2358 f63d
00000360: 1bd8 fbbc 92a6 ecbd e745 90bc c27e fcbd
00000370: e2b5 28be 6176 113e ae44 26bd 78ca 253d
00000380: ae67 1abb 7169 9f3d 5cf4 1e3e b406 2dbe
00000390: 6ec1 ffbd b0fb 4a3e f05c bebd f354 8cbd
000003a0: d2a4 02be 181b 913d 2c96 9d3d 1630 993d
000003b0: 9eb9 cfbd ba9f b0bd 7806 3abd f681 b13d
000003c0: 41d4 bd3d 1612 cd3c 8170 d0bc 375a da3c
000003d0: 3050 3c3e 86aa 8dbc ad54 bb3d b2b1 d73d
000003e0: 8998 373d 21b6 f03d 3bf8 e3bc d92f 3c3e
000003f0: 265b c03d 5741 3fbd 9bc6 2a3e edd3 4fbd
-0.10084509 0.031027386 -0.18033448 0.12433629 -0.07016955 0.2050978 0.15745588 0.075305425
-0.09013393 -0.08980708 0.07455167 -0.012103199 0.0569821 -0.01415425 0.08644858 -0.03394886
-0.059377037 -0.105288334 0.052102614 -0.21119049 -0.073147036 -0.067015626 -0.16707723 0.020435259
-0.08604205 0.011857568 0.074404486 0.06452661 -0.061438985 0.06273842 0.17046356 0.056218144
0.12500569 0.071484484 0.21545215 -0.13789822 0.008238421 -0.059632298 0.03831078 -0.011915204
-0.054543395 -0.14824554 0.12572409 0.037300423 0.057141397 0.07801653 0.00844795 -0.0522289
0.22542773 0.07122795 0.009614708 -0.15492311 -0.06180197 0.10723959 -0.06438566 -0.03925591
-0.0013790431 -0.07490303 -0.10979051 -0.080722585 0.13174234 -0.065919064 -0.083734654 -0.021732125
-0.007522265 0.21139394 0.12994677 0.1924942 0.07758606 0.091571964 0.17022195 0.064743474
-0.17254162 -0.14790149 0.07298327 -0.15212506 -0.048396196 -0.025019145 0.035586096 0.018455379
-0.0937886 0.22925124 -0.08970132 0.05870812 -0.23793404 0.07612436 -0.012006975 0.061110064
-0.029365454 -0.12909922 0.18243693 0.11301965 0.008957531 0.085456155 0.15352488 0.21900378
0.10655681 0.20548718 -0.15649532 -0.02268668 -0.03721335 -0.36262184 -0.13679644 -0.2272412
-0.05470231 0.10089585 -0.2397861 -0.11446551 -0.08011295 -0.15843286 0.0005644794 0.22145891
-0.049491342 -0.06685348 0.0017278513 0.15853384 -0.15046012 0.03621888 -0.020893045 0.09391019
0.027903903 0.12620102 -0.21759014 0.12678479 0.04279898 0.060594723 -0.08854322 0.20484829
0.25549388 -0.109277114 -0.09881625 -0.017916469 0.17288166 -0.08671411 -0.04231365 0.20238572
0.2363325 -0.15135245 0.17728285 -0.15147375 0.07035717 0.0072047026 -0.043382682 -0.053672947
0.2572389 -0.18044597 0.14789104 -0.05449143 0.13524744 -0.023805968 -0.1501938 -0.03906788
0.16424942 0.03734654 0.00060892454 -0.028248752 -0.18897977 0.07700094 -0.22551757 -0.1383505
0.080146566 0.1136016 0.076007955 0.055750735 0.014678882 -0.065725006 -0.017515674 -0.26827002
0.06934365 -0.12827972 0.1316371 0.14678186 0.091016024 0.09141146 -0.108690664 -0.010296722
0.18369593 -0.06349906 -0.07021462 -0.061947327 -0.1321618 0.21314476 0.004035634 0.06084732
-0.06264696 0.14489037 0.22842486 0.021467205 0.07001211 0.07620449 -0.052757155 -0.14155374
-0.14406507 0.2536295 0.026409626 0.06844152 -0.08466058 -0.11909017 -0.108060375 -0.03503062
0.090778224 -0.17105646 -0.104919136 0.079047225 0.1120146 -0.08860931 0.05781162 -0.027050538
0.1869417 -0.109292835 0.00837352 -0.014356019 -0.08020743 0.11957058 0.15370533 0.120285295
-0.030742696 -0.11555208 -0.017611457 -0.12328865 -0.16475633 0.14205314 -0.04059284 0.040476292
-0.0023560333 0.07783783 0.15522903 -0.16897088 -0.12488066 0.19822574 -0.0929507 -0.0685214
-0.12758186 0.07085246 0.07694659 0.07479875 -0.101428255 -0.086242154 -0.045416325 0.08667366
0.09269 0.025033038 -0.025444271 0.026654346 0.18389964 -0.017293226 0.0914701 0.105319396
0.044823203 0.11753488 -0.027828326 0.18377627 0.09392385 -0.046693172 0.16677324 -0.050739218

bias f4 [10]
00000000: 4b18 b8be 085f 35bf 711d 75bc e872 1b3f
00000010: 4a8f a43f 64af 7cbd 6b59 18be 63fb 42be
00000020: 4aca 063f c569 93be
-0.35956034 -0.7084813 -0.014960633 0.6072221 1.2856228 -0.061690703 -0.1487786 -0.19041209
0.5265242 -0.28791633
