transfer learning/model.pt (torch_old, 262482 bytes, 10 tensors)

weight f4 [6, 3, 5, 5]
0.0036516504 0.002359345 -0.0018967262 -0.012801654 -0.0073596337 -0.018106252 0.009389062 -0.0021469886
-0.0071761436 0.012617934 0.00895371 -0.0124900015 -0.005514931 0.01661314 -0.012141736 0.013500969
-0.00050745363 -0.011455193 -0.015938181 0.01932792 0.007607701 0.00440603 -0.010767352 -0.011343593
-0.006296836 0.0013650411 -0.007523137 0.0077985027 -0.010064457 -0.009294488 0.0009420568 -0.001349253
0.0035452477 -0.0008275931 0.0053282217 0.0055649932 0.00984182 -0.028296793 0.0008550259 0.013902431
0.006108257 -0.0015444093 0.018177595 -0.029503973 -0.009876014 -0.018377047 0.014520926 0.0038035975
-0.00090072415 -0.019444188 0.013528179 -0.0052169045 0.0197447 0.013366693 0.013041149 -0.011383671
-0.016806176 0.0068360306 -0.0151340645 0.004650369 0.012309724 0.009992702 -0.012931427 -0.002419869
-0.017235225 0.008930447 -0.0217832 -0.004788766 -0.0019996564 -0.01762544 -0.01515304 -0.009459824
-0.00070468325 0.00087898556 -0.0008507781 0.011583772 0.02878407 -0.017210186 -0.0013771966 -0.0015419017
0.018847266 0.018431026 -0.0049665747 -0.010060357 0.0015321713 0.0032398237 -0.002625006 -0.00090745726
-0.0039955527 0.009905081 0.0010413752 -0.018866641 -0.0069089597 0.015023203 -0.0030222838 -0.008002465
0.0008124156 -0.015252554 -0.00057475764 -0.01493145 -0.0099799875 -9.965185e-05 -0.022050498 -0.015184733
0.012542885 0.0032749088 0.011403348 0.0025384517 -8.926134e-05 -0.010272804 0.00773281 0.0031873845
0.01902625 -0.00987802 0.015675388 0.008026575 -0.0007992786 0.0123507995 0.011413674 -0.0023806319
0.0030970755 0.005285271 -0.0028747022 -0.002898773 0.0012565725 -0.00808127 0.00069598074 0.0038127222
0.0017053038 -0.005828539 -0.020584283 -0.022639027 0.020647774 0.011186626 -0.011298111 -0.004151026
0.00704565 0.004548729 -0.007890073 0.0033732902 0.0004595803 -0.008980247 -0.0047697434 0.00586312
-0.008819459 0.012818391 0.010404638 -0.008087553 -0.012788054 0.008889726 0.00016051185 0.013611659
0.018805536 0.0043735155 0.011433823 0.0087795 -0.0036239391 -0.005116628 -0.0069668437 -0.0075476053
-0.0048594302 -0.003223088 -0.0086410185 0.006121462 -0.002460744 -0.008192328 -0.012071368 0.01568666
0.0061181784 0.027955338 0.014426346 0.017285343 0.0015074722 0.00017217488 -0.0019151483 -0.013194364
0.0022945916 0.005722953 0.0010909307 -0.0029524344 -0.006996112 -0.0046609887 -0.014504363 0.009824097
0.0045224284 -0.0022109738 0.001274157 -0.006535895 -0.01400039 -0.018497005 0.0158027 0.005596649
-0.012555808 0.0066897795 -0.013142631 0.008834697 -0.016153976 -0.005063493 0.011188703 -0.00016126245
-0.018092223 -0.012968797 0.008114046 0.015095045 0.003922131 -0.009421977 0.010019093 0.0060792775
0.008816413 -0.020255713 -0.011257739 -0.012854116 0.013100485 0.02091249 -0.007574287 0.022604983
0.010488988 -0.0049644173 -0.011630439 0.008725963 -0.002123731 -0.009457658 0.007821124 0.013827174
-0.0046714754 0.0044165705 -0.0033462257 0.008791713 0.006676826 -0.002932497 -0.015440602 -0.013951879
0.0004836702 -0.00026246888 0.0031428414 -0.0026334005 0.016968647 0.007377642 0.019620534 0.0020510694
-0.018028473 -0.01369727 0.001015118 -0.0056300205 0.007949893 -0.00054495496 0.0020678851 0.0027845262
-0.013366912 -0.006596425 0.009725547 -0.0017958716 0.004247118 -0.0023228764 0.011281185 0.013486319
00000000: 8750 6f3b 3e9f 1a3b 929b f8ba 07be 51bc
00000010: 1529 f1bb 9053 94bc 95d4 193c 7eb4 0cbb
00000020: db25 ebbb 73bb 4e3c 95b2 123c dda2 4cbc
00000030: 98b6 b4bb 4818 883c 22ee 46bc 2b33 5d3c
00000040: a306 05ba 90ae 3bbc ca90 82bc 9655 9e3c
00000050: 054a f93b 7560 903b 8c69 30bc 7ada 39bc
00000060: b055 cebb 2eeb b23a a684 f6bb 958a ff3b
00000070: 64e5 24bc e847 18bc 5df4 763a 6bd9 b0ba
00000080: 6357 683b d5f2 58ba 5d98 ae3b 8c5a b63b
00000090: 963f 213c adce e7bc d123 603a 06c7 633c
000000a0: c627 c83b c76d caba 2ee9 943c 51b2 f1bc
000000b0: 01cf 21bc 768b 96bc 2ee9 6d3c c745 793b
000000c0: 931e 6cba 6b49 9fbc 4ca5 5d3c 91f2 aabb
000000d0: a3bf a13c f9ff 5a3c 8baa 553c 9482 3abc
000000e0: 1bad 89bc c800 e03b def4 77bc 1f62 983b
000000f0: baae 493c 6eb8 233c 56de 53bc aa96 1ebb
00000100: e330 8dbc 0251 123c ae72 b2bc 15eb 9cbb
00000110: ab0c 03bb 3a63 90bc 7544 78bc 61fd 1abc
00000120: 7eba 38ba b96b 663a c006 5fba dcc9 3d3c
00000130: 92cc eb3c 60fc 8cbc 0d83 b4ba a319 caba
00000140: 9565 9a3c aafc 963c a6be a2bb 32d4 24bc
00000150: 23d3 c83a 3953 543b 4b08 2cbb 6de2 6dba
00000160: 20ed 82bb ec48 223c c17e 883a 378e 9abc
00000170: 8e64 e2bb e123 763c 8211 46bb c51c 03bc
00000180: 4af8 543a d9e5 79bc 55ab 16ba 0aa3 74bc
00000190: 1a83 23bc 2efc d0b8 3fa3 b4bc 63c9 78bc
000001a0: ac80 4d3c da9f 563b 1cd5 3a3c 275c 263b
000001b0: d131 bbb8 434f 28bc 8363 fd3b 70e3 503b
000001c0: f0dc 9b3c 6bd7 21bc ac69 803c e581 033c
000001d0: ae86 51ba 025b 4a3c 6b00 3b3c 6004 1cbb
000001e0: 4ef8 4a3b 1130 ad3b 8065 3cbb 57f9 3dbb
000001f0: 94b3 a43a 4e67 04bc 7a72 363a ddde 793b
00000200: 8084 df3a 54fd bebb 5fa0 a8bc 7b75 b9bc
00000210: 8525 a93c 1c48 373c b61b 39bc 5405 88bb
00000220: 32df e63b 810d 953b 5d45 01bc 6b12 5d3b
00000230: d3f3 f039 e321 13bc 824b 9cbb 6a1f c03b
00000240: 7e7f 10bc 3b04 523c 3778 2a3c a881 04bc
00000250: fc84 51bc 37a6 113c 124f 2839 7003 5f3c
00000260: 110e 9a3c b54f 8f3b ee54 3b3c e4d7 0f3c
00000270: 9c7f 6dbb 63a9 a7bb 1f4a e4bb e751 f7bb
00000280: db3b 9fbb 723a 53bb 0f93 0dbc 8c96 c83b
00000290: 6f44 21bb 1d39 06bc fdc6 45bc 4f81 803c
000002a0: 007b c83b 9802 e53c 7b5c 6c3c fe99 8d3c
000002b0: 6096 c53a d889 3439 b705 fbba 2c2d 58bc
000002c0: dc60 163b 9c87 bb3b 8ffd 8e3a a17d 41bb
000002d0: a43f e5bb 35bb 98bb b5a3 6dbc 40f5 203c
000002e0: e130 943b fce5 10bb 9d01 a73a 102b d6bb
000002f0: e461 65bc 0887 97bc aa74 813c 1864 b73b
00000300: e0b6 4dbc f035 db3b 3154 57bc 68bf 103c
00000310: 5855 84bc a8eb a5bb d250 373c 8f18 29b9
00000320: 2436 94bc 147b 54bc c7f0 043c 3551 773c
00000330: 3885 803b a35e 1abc 1f27 243c ad34 c73b
00000340: b772 103c 4fef a5bc 6172 38bc 129a 52bc
00000350: 6ba3 563c ac50 ab3c b931 f8bb 162e b93c
00000360: 01da 2b3c 8dac a2bb 998d 3ebc 57f7 0e3c
00000370: 4b2e 0bbb 4bf4 1abc 2c24 003c 5f8b 623c
00000380: 2d13 99bb e1b8 903b 5a4c 5bbb 1e0b 103c
00000390: 47c9 da3b 232f 40bb 94fa 7cbc 6c96 64bc
000003a0: 1e95 fd39 fa9b 89b9 21f8 4d3b 2195 2cbb
000003b0: d501 8b3c 26c0 f13b 3ebb a03c 3c6b 063b
000003c0: 73b0 93bc 846a 60bc b50d 853a 097c b8bb
000003d0: 4540 023c 4fdb 0eba 5b85 073b 997c 363b
000003e0: e400 5bbc d326 d8bb e757 1f3c 7463 ebba
000003f0: 682b 8b3b 663b 18bb b8d4 383c b9f5 5c3c

bias f4 [6]
0.043681104 -0.045341868 0.01876957 0.072677165 0.09125745 0.04261318
00000000: f5ea 323d 65b8 39bd a4c2 993c c4d7 943d
00000010: 30e5 ba3d 288b 2e3d

weight f4 [16, 6, 5, 5]
0.0037803752 0.0030510365 0.008936201 -0.018542793 0.00221597 0.008861827 0.00466363 0.012945468
0.0047037285 -0.005545409 0.012697823 -0.006907527 0.008594293 0.019074095 0.006791597 0.0015777068
0.004965452 -0.01669231 -0.0052558254 0.010667255 -0.012635824 0.0029069092 0.016418694 -0.0013137475
0.0027722812 -7.331648e-05 -0.00437178 -0.020237645 -0.012126036 0.010754228 -0.006496768 0.0020748575
0.016186912 -0.009245748 0.0010199029 -0.0051428345 -0.011420481 0.0029800157 -0.0121541405 -0.007684868
-0.0063852365 -0.0012320024 -0.013474331 -0.00497144 0.0011967303 0.018058203 -0.014438184 0.022883195
-0.020437874 -0.00036925147 -0.0012628338 0.0013072835 0.012088587 -0.009643174 0.009558771 0.01057845
-0.012575942 0.015463573 0.0034158162 0.005853393 0.0085488735 0.00068427436 0.0005380828 0.0054553393
0.006450695 0.0045902845 -0.019133173 -0.004281153 0.008438695 0.0004535482 -0.014031514 0.01659924
0.0017876849 0.004176464 -0.01948973 0.0040473305 0.009148886 0.004884577 -0.0063333856 0.001170262
-0.00077058596 -0.0027450398 -0.0010083218 0.0073243347 -0.0088317 0.0052429163 -0.0046425825 0.012401006
0.007757872 0.0101402905 0.007243256 -0.0047756406 0.0075048395 -0.004383659 -0.0014676487 0.005939512
0.004298675 -0.0035651312 -0.0013464901 -0.0055646743 -0.009048514 0.011466917 -0.0032613762 -0.005149982
-0.015547078 -0.009255518 0.0039919117 0.0023574114 -0.011967432 -0.0060460367 0.008017502 -0.016817419
0.011896207 0.011628958 0.0029480292 -0.025533307 0.02328559 0.002955837 -0.004704672 -0.0032462026
0.009665293 -0.0077628773 0.003692801 0.0032056805 -0.008682003 0.0028905703 -0.0022186507 0.009988865
0.0055222646 0.0008126317 0.0055934386 -0.0035647142 0.004692481 0.005274085 0.0018510282 -0.005925419
0.0007033828 -0.016314406 0.0047418745 0.005170461 -0.007300623 0.014467668 0.0023714944 -0.011269426
-0.0046120803 -0.011453841 -0.011926386 -0.007262266 0.0072032195 0.017065441 0.01655504 -0.0013616326
0.00094006193 0.00031789442 0.020246562 -0.008157853 0.02565844 0.0014045122 -0.0037045856 0.006776466
0.02092153 0.001090558 -0.010265463 0.009560375 0.00047025923 0.009744304 -0.0051737344 -0.0014087931
-0.012520246 0.013415437 0.011640682 -0.0017267182 -0.016189078 -0.014388633 0.0040674247 0.006624977
0.0049246526 -0.0066167656 0.0020029172 0.0034796686 -0.016520943 0.013574995 -0.0030869746 0.003872269
0.0019902503 0.017305719 0.005658091 -0.0051941476 -0.010411431 -0.004608489 -0.0043692216 0.0078874035
0.005086796 -0.009744587 -0.006535906 0.0031091033 -0.0039842413 -0.0021173768 -0.0052978457 -0.0068986076
0.0011092928 0.0011541282 0.017704254 -0.0031763774 -0.0076561435 0.0065260124 -0.0025408994 0.0107204495
-0.013809548 -0.020785723 0.008675443 0.01852023 0.008831805 0.0103141125 0.014554533 -0.004595509
0.021786815 0.01009406 -0.01684221 -0.016058989 0.016750544 0.0030569287 -0.00015634792 -0.0031721166
0.005668212 0.0013801329 0.004240839 0.002135069 0.0052696737 -0.0009207812 0.014640543 0.0019898214
-0.014014164 0.015516599 -0.002189963 0.010919624 0.017754413 0.023062596 -0.005796827 -0.02630256
0.002743954 -0.0009074938 -0.001134426 0.00045918196 0.0020148319 0.00946007 -0.0026145251 -0.0055353357
0.017981334 -0.0125356065 0.009875823 0.011151335 -0.0015314518 0.0035317598 -0.004367543 0.008690697
00000000: 2cc0 773b e6f3 473b 2569 123c 0ee7 97bc
00000010: cf39 113b 3231 113c 5dd1 983b 3a19 543c
00000020: bc21 9a3b 43b6 b5bb 880a 503c 8958 e2bb
00000030: 14cf 0c3c 4741 9c3c 0c8c de3b 0ecb ce3a
00000040: 3bb5 a23b 50be 88bc 0f39 acbb b6c5 2e3c
00000050: 7d06 4fbc d881 3e3b 7f80 863c 0d32 acba
00000060: 29af 353b 7cc1 99b8 2641 8fbb 6bc9 a5bc
00000070: 48ac 46bc 8032 303c d7e2 d4bb 55fa 073b
00000080: 6a9a 843c 7a7b 17bc 43ae 853a 3985 a8bb
00000090: f81c 3bbc 5e4c 433b 2922 47bc 58d1 fbbb
000000a0: 3f3b d1bb 247b a1ba 71c3 5cbc 76e7 a2bb
000000b0: 9bdb 9c3a ccee 933c 228e 6cbc 8a75 bb3c
000000c0: 546d a7bc 1898 c1b9 ac85 a5ba 2859 ab3a
000000d0: 350f 463c 67fe 1dbc 649c 1c3c 3c51 2d3c
000000e0: 530b 4ebc ed5a 7d3c e3db 5f3b d2cd bf3b
000000f0: 9310 0c3c e060 333a 200e 0d3a b4c2 b23b
00000100: 5a60 d33b 196a 963b 2cbd 9cbc ea48 8cbb
00000110: 7442 0a3c 35ca ed39 6fe4 65bc 21fb 873c
00000120: c050 ea3a b8da 883b eda8 9fbc 789f 843b
00000130: 36e5 153c cd0e a03b 4a88 cfbb 7a63 993a
00000140: 2601 4aba 20e6 33bb aa29 84ba f900 f03b
00000150: d6b2 10bc c5cc ab3b ce20 98bb 972d 4b3c
00000160: bf35 fe3b 7623 263c d658 ed3b fa7c 9cbb
00000170: 28eb f53b cca4 8fbb 1e5e c0ba 3da0 c23b
00000180: e6db 8c3b faa4 69bb b67c b0ba df57 b6bb
00000190: 3840 14bc bcdf 3b3c d0bc 55bb 2ec1 a8bb
000001a0: 2cb9 7ebc 75a4 17bc 95ce 823b cd7e 1a3b
000001b0: 0c13 44bc d51d c6bb d75b 033c afc4 89bc
000001c0: 4fe8 423c 6387 3e3c b933 413b 3a2b d1bc
000001d0: 6cc1 be3c b7b6 413b a629 9abb 3ebe 54bb
000001e0: 2d5b 1e3c bc5f febb ec02 723b 6516 523b
000001f0: f63e 0ebc b96f 3d3b c866 11bb 56a8 233c
00000200: 1df4 b43b ca06 553a 2a49 b73b fb9d 69bb
00000210: 62c3 993b 3bd2 ac3b 339e f23a 042a c2bb
00000220: 3863 383a caa5 85bc ba61 9b3b f86c a93b
00000230: 113a efbb cc09 6d3c 136b 1b3b 66a3 38bc
00000240: ef20 97bb e4a8 3bbc e366 43bc 4df8 edbb
00000250: fc08 ec3b d3cc 8b3c 6f9e 873c cf78 b2ba
00000260: 7d6e 763a 11ab a639 1edc a53c 84a8 05bc
00000270: a631 d23c 9c17 b83a a2c8 72bb 1e0d de3b
00000280: a163 ab3c 0ef1 8e3a 7930 28bc 1ea3 1c3c
00000290: 208d f639 93a6 1f3c 6e88 a9bb 41a7 b8ba
000002a0: b821 4dbc 6ccc 5b3c 8fb8 3e3c 0c53 e2ba
000002b0: f59e 84bc 4dbe 6bbc 0848 853b 5616 d93b
000002c0: fb5e a13b 74d1 d8bb 6043 033b 270b 643b
000002d0: ee56 87bc a869 5e3c d74e 4abb e5c5 7d3b
000002e0: dc6e 023b b9c4 8d3c 8267 b93b ab33 aabb
000002f0: b594 2abc cf02 97bb b02b 8fbb 2b3a 013c
00000300: 23af a63b c3a7 1fbc 272b d6bb 19c2 4b3b
00000310: 3d8e 82bb b0c3 0abb 8d99 adbb b70d e2bb
00000320: b165 913a 1e46 973a 8308 913c c52a 50bb
00000330: 63e0 fabb 29d8 d53b 3885 26bb d3a4 2f3c
00000340: 7141 62bc d246 aabc 7223 0e3c bdb7 973c
00000350: 46b3 103c 86fc 283c 2376 6e3c ec95 96bb
00000360: 437a b23c 8e61 253c adf8 89bc 248e 83bc
00000370: 7038 893c c156 483b 53f1 23b9 49e3 4fbb
00000380: 69bc b93b 93e5 b43a bcf6 8a3b 84ec 0b3b
00000390: 3aad ac3b 9560 71ba e3de 6f3c aa67 023b
000003a0: aa9b 65bc 5539 7e3c 7b85 0fbb 39e8 323c
000003b0: b471 913c c5ed bc3c 4ff3 bdbb 7778 d7bc
000003c0: e9d3 333b e1e4 6dba 05b1 94ba 5cbe f039
000003d0: 450b 043b 69fe 1a3c 7458 2bbb c361 b5bb
000003e0: 974d 933c 2562 4dbc 34ce 213c 17b4 363c
000003f0: ffba c8ba 1975 673b 9b1d 8fbb 6d63 0e3c

bias f4 [16]
-0.051181152 0.18064834 -0.11361209 0.031244544 -0.010123247 0.14163403 0.025636142 -0.122763254
-0.037749596 -0.07470403 -0.063061595 0.012916601 0.1064716 -0.251125 -0.13993677 -0.05818502
00000000: 54a3 51bd e1fb 383e 75ad e8bd 8ff4 ff3c
00000010: fadb 25bc 8308 113e e302 d23c 4d6b fbbd
00000020: 529f 1abd 6dfe 98bd 7026 81bd 27a0 533c
00000030: c80d da3d 7593 80be 964b 0fbe 6a53 6ebd

weight f4 [120, 400]
0.01601191 -0.0030263888 0.007096958 -0.0030666185 0.0058412906 0.020986414 0.007934827 0.01509264
-0.01956505 -0.017981898 -0.0071558533 -0.00057701766 0.002222662 0.006168315 -0.0041716527 -0.0003128053
0.0034712113 0.0123195 -0.0033738776 0.0041388045 -0.0024016849 -0.010818769 0.00025835467 -0.008060893
-0.009521271 0.0019160402 -0.008116183 -0.000335803 0.0070457286 -0.013523756 0.007116329 0.0046579107
-0.0043942216 -0.0016906188 0.005743562 -0.018043969 -0.017006757 0.0064902958 0.001851648 -0.0019912422
-0.00084607577 0.0022243857 -0.0077922405 0.012734461 0.0007470876 0.016122533 0.0018908447 -0.00895891
0.019475063 -0.00458594 0.012775574 0.0068385047 0.0022851715 -0.0025429842 -0.003284529 -0.005800187
-0.0029209116 0.008654798 0.010896699 -0.011547058 0.0075963526 0.0019139644 0.00053777394 -0.010449294
0.006716578 -0.0007794622 -0.0006111777 0.0049382425 -0.005443015 0.0048616016 -0.004675269 0.0070197354
0.005333572 -0.007836721 -0.003913804 -0.013848178 0.0017842756 0.002606368 -0.009016039 0.0054169837
-0.0003328915 -0.0010578518 -0.003658386 0.015753191 -0.013686481 -0.0054570613 -0.0021882418 -0.004003204
-0.010903813 -0.00018821331 -0.003877437 -0.0020746912 -0.018020475 -0.0067999624 -0.0069987956 0.0076656435
0.0017497457 -0.002908141 0.01761127 0.010956713 -0.0031422526 0.020147106 0.011157072 -0.0012733286
-0.006643154 -0.02349347 -0.015473255 -0.00822856 -0.0135837365 -0.0029023748 -0.0033842118 0.004698878
0.0060738125 0.00015377945 -0.007724848 0.013312621 0.019225778 -0.017285975 -0.013411566 -0.0007297194
-0.0045969486 0.0026447389 -0.006343444 0.008831957 0.0040757577 -0.0043290807 0.003816842 0.005573861
0.0039423644 -0.003395452 -0.0055660987 0.0030250319 0.0022135219 0.005860412 -0.0010673996 0.023400683
-0.012393289 0.0013888052 -0.009720413 -0.0023746185 -0.00082360196 5.6373923e-05 -0.0062705353 -0.001736912
-0.012520741 -0.0096076885 -0.0077871582 -0.01486094 0.0088458685 0.022456845 0.009386037 -0.0029920957
-0.0017429859 -0.002592337 -0.010848178 -0.0009315889 0.001418594 -0.003766356 -0.00082363584 -0.008047168
0.0055986033 0.0018711354 -0.004132687 -0.0040551554 -0.0011040879 0.01589394 -0.006452019 -0.0046647224
-0.00029112693 -0.0036235235 -0.02263111 0.007878617 0.005943089 -0.008423151 -0.017341467 -0.004765725
-0.013533649 0.0054231025 -5.5823624e-05 0.013954767 0.0072877384 0.018272633 0.0010770404 -0.00018958752
-0.004973928 -0.011300748 0.0075204773 0.008079038 0.00063769426 0.010384041 0.015806224 0.010977924
0.009444803 -0.014917871 -0.0062370114 -0.005161474 -0.0050755534 0.008797093 -0.0169366 -0.02108343
-0.005341231 -0.0023154218 0.007291052 -0.004542274 -0.00010308796 0.0013248104 0.0043952214 -0.01567528
-0.0049301926 0.008899507 0.01038523 0.014268147 -0.003217994 0.0010195307 -0.0066964775 -0.0053098258
0.00047503773 0.0053690225 0.004281189 0.015350602 0.011481696 -0.0009747396 -0.0059801703 0.016242696
-0.019538924 0.0024217255 0.0014390174 0.005531767 -0.0085018175 0.014830514 -0.010426704 0.004970142
-0.011178691 0.003364947 0.006667144 -0.0076043364 -0.002155987 -0.01353423 -0.006507117 0.009790311
-0.0073438524 0.010307633 0.004684037 -0.018776488 -0.005253849 0.0074844323 -0.028021878 -0.006250024
0.007941513 0.0011254766 -0.00812074 0.0022025034 0.014882242 -0.008121309 0.013175584 0.025684893
00000000: 692b 833c 6156 46bb 998d e83b 52f9 48bb
00000010: 4c68 bf3b b3eb ab3c 1401 023c 1f47 773c
00000020: e246 a0bc c64e 93bc a67b eabb 0043 17ba
00000030: 15aa 113b 941f ca3b 5cb2 88bb 0400 a4b9
00000040: 437d 633b bad7 493c 461c 5dbb cf9e 873b
00000050: 9665 1dbb 3541 31bc c773 8739 d611 04bc
00000060: 1bff 1bbc a423 fb3a bdf9 04bc b70e b0b9
00000070: dbdf e63b be92 5dbc 1830 e93b 63a1 983b
00000080: 67fd 8fbb c197 ddba 7d34 bc3b f2d0 93bc
00000090: c151 8bbc 8cac d43b ffb2 f23a 807f 02bb
000000a0: 2fcb 5dba 00c7 113b 0d56 ffbb 33a4 503c
000000b0: 33d8 433a 6713 843c 38d6 f73a 64c8 12bc
000000c0: 2b8a 9f3c a745 96bb a450 513c 8915 e03b
000000d0: d1c2 153b 32a8 26bb 4141 57bb 7f0f bebb
000000e0: c46c 3fbb dbcc 0d3c 1188 323c df2f 3dbc
000000f0: d3ea f83b fddd fa3a 66f9 0c3a 8433 2bbc
00000100: bd16 dc3b d354 4cba 7137 20ba fbd0 a13b
00000110: 525b b2bb 124e 9f3b 0033 99bb cf05 e63b
00000120: 3fc5 ae3b 9765 00bc 5e3f 80bb 78e3 62bc
00000130: 5bde e93a 99cf 2a3b 02b8 13bc f480 b13b
00000140: f187 aeb9 9ea7 8aba 88c1 6fbb d60c 813c
00000150: 433d 60bc 26d1 b2bb 9b68 0fbb 4f2d 83bb
00000160: e8a5 32bc 205b 45b9 991c 7ebb 8bf7 07bb
00000170: ad9f 93bc 38d2 debb 2756 e5bb 1430 fb3b
00000180: b957 e53a 8296 3ebb 8345 903c c983 333c
00000190: 40ee 4dbb 8b0b a53c 27cc 363c d1e5 a6ba
000001a0: d1ae d9bb 6175 c0bc 8983 7dbc 15d1 06bc
000001b0: 528e 5ebc c535 3ebb a7c9 5dbb 0cf9 993b
000001c0: d506 c73b db3f 2139 b920 fdbb 2e1d 5a3c
000001d0: 617f 9d3c 519b 8dbc 2fbc 5bbc a44a 3fba
000001e0: 00a2 96bb 5b53 2d3b aadc cfbb eab3 103c
000001f0: ef8d 853b f6da 8dbb fc23 7a3b efa4 b63b
00000200: f32e 813b 3b86 5ebb d263 b6bb 9d3f 463b
00000210: bc10 113b b308 c03b fde7 8bba cab2 bf3c
00000220: 390d 4bbc 9208 b63a 5e42 1fbc 7d9f 1bbb
00000230: fee6 57ba 0a73 6c38 1079 cdbb 18a9 e3ba
00000240: cb23 4dbc 9169 1dbc 6b2b ffbb 4d7b 73bc
00000250: 43ee 103c 6bf7 b73c e4c7 193c 0917 44bb
00000260: e774 e4ba 33e4 29bb 8ebc 31bc df35 74ba
00000270: 1ef0 b93a f8d4 76bb 44e9 57ba 45d8 03bc
00000280: 7d74 b73b e340 f53a 7e6b 87bb 1ce1 84bb
00000290: 0bb7 90ba 0234 823c 756b d3bb 87da 98bb
000002a0: 65a2 98b9 a378 6dbb e164 b9bc 5115 013c
000002b0: 3ebe c23b 4201 0abc b10f 8ebc cd29 9cbb
000002c0: 3dbc 5dbc 48b4 b13b 2924 6ab8 89a2 643c
000002d0: fbcd ee3b 7db0 953c 7b2b 8d3a 03cc 46b9
000002e0: 55fc a2bb c626 39bc 566e f63b f15d 043c
000002f0: f02a 273a d321 2a3c 0e7c 813c c0dc 333c
00000300: 60be 1a3c 166a 74bc d85f ccbb 9521 a9bb
00000310: d450 a6bb af21 103c a0be 8abc 28b7 acbc
00000320: 7e05 afbb 55be 17bb c7e9 ee3b 5bd7 94bb
00000330: ed30 d8b8 43a5 ad3a ca05 903b 7269 80bc
00000340: 748d a1bb 3dcf 113c d026 2a3c f2c4 693c
00000350: fbe4 52bb c6a1 853a 206e dbbb 0cfe adbb
00000360: 7c0e f939 a0ee af3b 3749 8c3b 1781 7b3c
00000370: b91d 3c3c ab85 7fba 4ef5 c3bb 670f 853c
00000380: 1810 a0bc d0b5 1e3b 699d bc3a d343 b53b
00000390: 354b 0bbc affb 723c c4d4 2abc 93dc a23b
000003a0: d426 37bc 7186 5c3b 0f78 da3b cc2d f9bb
000003b0: 764b 0dbb adbe 5dbc a739 d5bb 8a67 203c
000003c0: b3a4 f0bb 59e1 283c 8d7c 993b 26d1 99bc
000003d0: 7b28 acbb f83f f53b 238e e5bc 00cd ccbb
000003e0: 1f1d 023c ba84 933a da0c 05bc e057 103b
000003f0: a6d4 733c 3d0f 05bc 68de 573c 2069 d23c

bias f4 [120]
0.094567366 -0.19480366 0.18832687 0.10310044 -0.058589324 0.14692861 0.022267446 0.083955504
0.11900931 -0.05209462 -0.09018986 0.059660003 -0.30346635 0.15011744 0.014176673 0.15210913
-0.066015266 -0.04687912 -0.032102868 -0.08109398 -0.14533436 0.076679245 -0.01798664 -0.064236514
0.02576713 -0.04473388 0.007578627 -0.2114822 -0.08444204 0.01333121 -0.07421222 -0.045794554
0.0040774182 -0.10542309 0.118174054 -0.012163241 0.038241845 0.07307054 0.031393636 0.005050379
-0.027286522 -0.020168552 -0.070361175 0.040048238 -0.0029105106 0.09439068 0.16569266 -0.12247294
0.13924216 -0.062722035 0.1304691 -0.005684872 0.09922721 -0.09928457 -0.097855374 0.050349947
-0.052189026 0.06836453 0.016513342 0.09436571 0.18959801 -0.1080146 -0.037334803 0.16266473
0.09426371 -0.17410785 0.008119212 0.054799173 0.11717649 -0.20772855 0.11755426 0.17404613
0.02678724 0.025133668 0.146702 -0.12482195 -0.06702592 0.069001056 0.0038793108 0.04858649
0.06147395 -0.027277565 -0.122147284 -0.11040826 -0.15860035 -0.025298985 0.06482894 0.1018936
0.045035385 0.055181175 0.059178427 0.051236905 -0.030669175 0.009878511 0.13084769 -0.18533565
0.04300222 -0.09963973 0.15366781 0.18879384 0.032144077 -0.020857869 -0.10792757 0.031647857
0.13435574 -0.049535185 0.16057168 -0.01394836 -0.13471942 0.13653715 0.08599333 0.056863178
0.1972314 0.0072467863 -0.17548573 -0.017920744 -0.118327655 0.03676297 -0.1092877 -0.09281227
00000000: 89ac c13d 9c7a 47be c2d8 403e 5326 d33d
00000010: 5cfb 6fbd 7474 163e 386a b63c ddf0 ab3d
00000020: 27bb f33d 2b61 55bd 76b5 b8bd 0c5e 743d
00000030: f15f 9bbe 63b8 193e 4745 683c 7fc2 1b3e
00000040: 0333 87bd 5204 40bd 4c7e 03bd 9a14 a6bd
00000050: 88d2 14be 020a 9d3d b858 93bc 6f8e 83bd
00000060: 9715 d33c df3a 37bd 2256 f83b ca8e 58be
00000070: f3ef acbd 266b 5a3c 94fc 97bd 1293 3bbd
00000080: dd9b 853b 10e8 d7bd 3d05 f23d 5548 47bc
00000090: 7ba3 1c3d 02a6 953d 9d96 003d a67d a53b
000000a0: fc87 dfbc 8538 a5bc 8519 90bd 9f09 243d
000000b0: 44be 3ebb e74f c13d 56ab 293e 18d3 fabd
000000c0: 7f95 0e3e 6974 80bd b199 053e 2a48 babb
000000d0: a337 cb3d b555 cbbd 6668 c8bd bf3b 4e3d
000000e0: 29c4 55bd b402 8c3d fd46 873c cf42 c13d
000000f0: fb25 423e c236 ddbd 61ec 18bd 9591 263e
00000100: 550d c13d 5449 32be 7206 053c 1975 603d
00000110: 3afa ef3d cbb6 54be 4ac0 f03d 2639 323e
00000120: ea70 db3c 1fe5 cd3c 0d39 163e a7a2 ffbd
00000130: e344 89bd 6d50 8d3d 093c 7e3b a102 473d
00000140: 1ccc 7b3d 3375 dfbc 5b28 fabd ba1d e2bd
00000150: 2168 22be d13f cfbc 09c5 843d 97ad d03d
00000160: 0677 383d a805 623d 1465 723d cadd 513d
00000170: ec3d fbbc 7ad9 213c f0fc 053e a1c8 3dbe
00000180: 1923 303d ea0f ccbd 185b 1d3e 2c53 413e
00000190: 82a9 033d 1fde aabc 2109 ddbd 2fa1 013d
000001a0: 8d94 093e 68e5 4abd e76c 243e aa87 64bc
000001b0: e3f3 09be 65d0 0b3e 451d b03d 5de9 683d
000001c0: 07f7 493e 7376 ed3b 88b2 33be 86ce 92bc
000001d0: c555 f2bd c594 163d 3bd2 dfbd 5c14 bebd

weight f4 [84, 120]
-0.0091905575 0.0040510576 -0.0016820431 -0.009674433 0.0035149497 0.007376599 0.019096494 0.02295469
-0.0013716834 0.011888704 0.009089359 -0.013571459 0.0061740736 0.0040981304 -0.010297937 0.0014617947
0.0047002984 -0.014483754 -0.0037813159 0.0038921693 -0.0049502184 0.001369196 0.0068432195 -0.007949338
-0.0024371326 -0.000684945 0.0034878692 0.0018974824 -0.006961931 0.018186826 -0.011737088 0.000459471
-0.0039567407 -0.0031652122 0.011221062 -0.0022445703 -0.005235881 0.00514467 0.016345179 -0.018798366
-0.012682326 -0.011242256 -0.0038935381 0.0067097414 0.014514426 0.00997202 -0.0119514065 -0.0010716874
-0.011506186 -0.0022656901 -0.004734676 -1.4801319e-05 -0.00024541534 0.007832873 -0.0009481347 0.010932762
0.012276486 0.010772028 0.003696487 0.0035137697 -0.008850384 -0.004047982 0.0074772625 -0.009534892
0.01825166 0.009810615 0.0045532053 0.0063652685 -0.0073184976 0.0029275746 -0.023630194 0.009570087
-0.031641666 -0.0046915454 -0.006406959 -0.0049305195 0.0037494441 -0.0053553274 -0.0167248 0.0104131885
0.0082489895 -0.019206418 -0.015258181 -0.0076205647 -0.013192169 -0.013694521 0.0055197575 0.0071652657
-0.0019974818 -0.01111805 -0.0009694833 -0.007076087 0.005411269 -0.0067841266 -0.01031003 0.014171729
0.0058928286 -0.010325709 0.006401389 0.0035720412 0.00039034104 0.009716788 0.011266756 -0.0041828286
0.007822221 0.007112968 0.00021827329 0.008472886 0.003869016 0.008659916 0.016983977 0.014236682
0.0030884652 0.01467067 0.025049718 -0.003484742 0.0017754581 0.011809175 0.014362461 -0.014280537
0.0132375825 -0.005595386 0.012945601 -0.017084487 0.006430064 -0.006772499 0.014925636 0.0064584063
-0.0020854948 -0.0018871255 0.002190935 0.030302567 0.0026429314 -0.013160498 -0.0053667887 0.006197686
-0.01792629 -0.0011978531 0.0031131557 0.016006833 -0.0061849975 -0.0045550563 -0.015854549 -0.0014985853
0.007774295 0.0040962617 -0.0044358936 -0.007002578 0.00027815817 0.011139303 -0.0021659858 -0.0071116574
0.0031331803 -0.0015186035 -0.0047445255 -0.028500533 -0.014621738 0.0084578935 0.008203405 0.01664324
-0.0070979483 -0.014288213 0.0056065884 0.010966252 0.0014042202 -0.006275317 -0.008706173 0.013883569
-0.004890896 -0.013618827 0.005298847 -0.020977335 -0.013021552 0.0007068441 -0.022654485 0.0064198365
0.004234614 0.008145246 0.018402738 -0.003376266 -0.00032483472 0.018995635 -0.00059227285 -0.013503264
0.00746714 0.000107605956 0.013714998 -0.018576976 -0.010612487 0.0040153037 0.011857736 -0.0084838085
0.012861909 0.013750697 0.01610851 -0.011077979 0.013982617 0.005250064 -0.010263343 -0.0028256534
-0.0041121915 0.005602668 0.00013862216 -0.0056650145 -0.0059354617 -0.0044281827 -0.007836515 -0.021186698
-0.0054973816 0.012418518 -0.013262459 -0.0011381463 -0.0053655845 0.0053918427 -0.002628712 -0.017247291
0.0014749245 0.0027000995 0.003166299 -0.010163619 -0.012934655 0.002617789 0.004992283 0.024123866
-0.010286886 0.009950053 -0.0034234347 -0.010514602 0.010351994 -0.0013706611 0.007752001 0.0018714871
0.0064754477 0.022353027 0.0078513 -0.020349503 0.005241043 -0.006541475 -0.011229798 0.0056508016
-0.009475332 0.01107227 0.00056840957 -0.007428767 0.004410358 0.0008733288 0.008040208 0.0041905493
0.016669862 -0.0004466674 0.0082628345 0.0038753455 0.015228214 -0.010281076 0.0020157765 -0.009465083
00000000: fe93 16bc bcbe 843b 0078 dcba 8381 1ebc
00000010: 125b 663b 66b7 f13b 4070 9c3c 790b bc3c
00000020: 0fca b3ba d7c8 423c 89eb 143c d35a 5ebc
00000030: e24f ca3b 9c49 863b aeb8 28bc b199 bf3a
00000040: f604 9a3b 444d 6dbc f4cf 77bb c413 7f3b
00000050: 7135 a2bb 9876 b33a 163d e03b f13d 02bc
00000060: 4db8 1fbb e18d 33ba bc94 643b f2b4 f83a
00000070: e920 e4bb 8afc 943c ea4c 40bc 27e5 f039
00000080: 8ca7 81bb 736f 4fbb 8cd8 373c a419 13bb
00000090: c191 abbb 9f94 a83b 53e6 853c 08ff 99bc
000000a0: 88c9 4fbc 7031 38bc bb2a 7fbb 64dd db3b
000000b0: eacd 6d3c af61 233c d5cf 43bc dd77 8cba
000000c0: 7184 3cbc f97b 14bb 5725 9bbb 2e53 78b7
000000d0: 17ab 80b9 7355 003c 3e8c 78ba 541f 333c
000000e0: 5023 493c 297d 303c c340 723b 4647 663b
000000f0: 3301 11bc efa4 84bb d303 f53b 3c38 1cbc
00000100: 8184 953c b4bc 203c 0e33 953b be93 d03b
00000110: 02d0 efbb 8ddc 3f3b 1c94 c1bc dbcb 1c3c
00000120: b19a 01bd 89bb 99bb 78f1 d1bb 3290 a1bb
00000130: 3cb9 753b be7b afbb 7302 89bc 149c 2a3c
00000140: c526 073c c756 9dbc 73fd 79bc eeb5 f9bb
00000150: f823 58bc fc5e 60bc 15df b43b 9bca ea3b
00000160: 2fe8 02bb 7b28 36bc ec24 7eba 85de e7bb
00000170: 0451 b13b 614d debb 66eb 28bc 8a30 683c
00000180: a118 c13b 2a2d 29bc bec2 d13b e818 6a3b
00000190: b0a6 cc39 2a33 1f3c 3398 383c 1c10 89bb
000001a0: c628 003c e613 e93b 4ae0 6439 dcd1 0a3c
000001b0: 518f 7d3b 52e2 0d3c fb21 8b3c f940 693c
000001c0: d967 4a3b 405d 703c 1135 cd3c 4560 64bb
000001d0: 7db6 e83a 457b 413c 8750 6b3c eaf8 69bc
000001e0: 72e2 583c 8059 b7bb c919 543c c4f4 8bbc
000001f0: 49b3 d23b d7eb ddbb a88a 743c 0aa1 d33b
00000200: ccac 08bb 6d59 f7ba ca95 0f3b 173d f83c
00000210: 0835 2d3b 219f 57bc e3db afbb f515 cb3b
00000220: 28da 92bc 4801 9dba 1606 4c3b c320 833c
00000230: 85ab cabb 9542 95bb 66e1 81bc 2e6c c4ba
00000240: 83bf fe3b ef39 863b f95a 91bb e275 e5bb
00000250: c2d5 9139 a081 363c 36f3 0dbb e808 e9bb
00000260: 0b56 4d3b e10b c7ba f777 9bbb f379 e9bc
00000270: 0490 6fbc fa92 0a3c 9367 063c 6757 883c
00000280: e895 e8bb 1c19 6abc 79b7 b73b cbab 333c
00000290: d00d b83a 2da1 cdbb 56a4 0ebc e977 633c
000002a0: cf43 a0bb 8021 5fbc f3a1 ad3b a9d8 abbc
000002b0: 5958 55bc 814b 393a e695 b9bc 7e5d d23b
000002c0: 84c2 8a3b a373 053c 57c1 963c 5844 5dbb
000002d0: 944e aab9 bc9c 9b3c c242 1bba cb3c 5dbc
000002e0: e9ae f43b 82aa e138 dfb4 603c be2e 98bc
000002f0: ffdf 2dbc cf92 833b f346 423c acff 0abc
00000300: c2ba 523c 9a4a 613c fef5 833c 6980 35bc
00000310: 5917 653c bb08 ac3b 9527 28bc 992e 39bb
00000320: 90bf 86bb 9696 b73b 1a5b 1139 96a1 b9bb
00000330: 437e c2bb 4a1a 91bb ba64 00bc ba8f adbc
00000340: 6123 b4bb 0a77 4b3c c94a 59bc da2d 95ba
00000350: c9d1 afbb 0eae b03b 7846 2cbb 314a 8dbc
00000360: 4152 c13a 27f4 303b af81 4f3b 4f85 26bc
00000370: e0eb 53bc 368f 2b3b 4e96 a33b 6a9f c53c
00000380: 548a 28bc 8c05 233c b45b 60bb 7045 2cbc
00000390: 699b 293c c1a7 b3ba 7f04 fe3b b04c f53a
000003a0: fe2f d43b b21d b73c bda2 003c 00b4 a6bc
000003b0: 0ebd ab3b df59 d6bb 30fd 37bc 5c2a b93b
000003c0: 6c3e 1bbc 7768 353c 5201 153a 046d f3bb
000003d0: c484 903b 1bf0 643a 14bb 033c e050 893b
000003e0: 3c8f 883c af2e eab9 d760 073c 82f9 7d3b
000003f0: c27f 793c f571 28bc 1e1b 043b 6f13 1bbc

bias f4 [84]
0.19007258 -0.08042883 0.15991646 -0.11057456 -0.08982484 0.026613498 -0.104807585 -0.0796113
0.0003556856 0.1205019 0.16575155 -0.061413106 0.03742964 -0.12099838 -0.26535353 -0.05418258
-0.07431051 0.17539033 -0.025529345 -0.0502099 -0.006867652 0.05036927 -0.0654592 0.089831695
0.05170796 0.12905174 -0.10189892 0.17366418 -0.1510251 -0.059323065 0.030638201 -0.12150539
-0.06718429 -0.14742272 0.01571229 0.012227857 -0.23166642 0.14980303 -0.0062052067 -0.15807192
-0.06859713 0.14367867 0.17861015 0.0061925543 -0.021346059 -0.010442196 0.0733766 0.04379558
0.04486049 0.019322367 0.15003079 0.08921833 -0.0837791 -0.0017857193 0.07308556 -0.008534342
0.044899147 0.069765836 -0.0592495 0.19482611 0.07264054 -0.124171086 -0.07782012 0.073611446
-0.14385617 0.07561405 -0.043476727 0.042967 0.040009864 0.016051946 -0.07390054 -0.030585857
0.06544547 -0.015712257 0.058660258 0.09650277 -0.015839966 0.0914162 -0.006752223 0.08436612
-0.15117317 -0.078180686 0.01888162 0.1287332
00000000: 63a2 423e dfb7 a4bd 24c1 233e ea74 e2bd
00000010: 16f6 b7bd 8d04 da3c 5ca5 d6bd 400b a3bd
00000020: 507b ba39 b3c9 f63d c6ba 293e 4f8c 7bbd
00000030: d24f 193d 00ce f7bd 6bdc 87be 8eee 5dbd
00000040: 1c30 98bd 8699 333e eb22 d1bc e5a8 4dbd
00000050: 0a0a e1bb 0250 4e3d 790f 86bd aef9 b73d
00000060: bacb 533d 2426 043e 62b0 d0bd 06d5 313e
00000070: 53a6 1abe befc 72bd f7fc fa3c d1d7 f8bd
00000080: eb97 89bd fbf5 16be 0fb7 803c 5957 483c
00000090: f639 6dbe f765 193e 0c55 cbbb 9bdd 21be
000000a0: a77c 8cbd 8020 133e 94e5 363e e9ea ca3b
000000b0: eedd aebc bf15 2bbc 7946 963d fe62 333d
000000c0: a2bf 373d f149 9e3c aca1 193e 1ab8 b63d
000000d0: 6094 abbd cc0e eaba e2ad 953d a0d3 0bbc
000000e0: 2be8 373d 64e1 8e3d 9baf 72bd 7f80 473e
000000f0: 90c4 943d 694d febd 2860 9fbd 99c1 963d
00000100: 084f 13be 8adb 9a3d a714 32bd 2afe 2f3d
00000110: 62e1 233d 5f7f 833c 2b59 97bd 318f fabc
00000120: 4608 863d feb6 80bc bd45 703d 3fa3 c53d
00000130: d1c2 81bc 6b38 bb3d c041 ddbb 25c8 ac3d
00000140: 24cd 1abe 321d a0bd a1ad 9a3c a3d2 033e

weight f4 [10, 84]
0.003128475 -0.016472658 -0.008515826 -0.004281124 0.0075957924 0.01707334 -0.023188556 0.0038195655
-0.0037430793 -0.0025139211 -0.0012813794 0.013029591 1.7610864e-05 0.0027747436 -0.009182714 0.007128031
0.004895503 -0.016701497 -0.015888425 -0.0052946443 -0.002045958 -0.010783892 -0.018812595 -0.008239133
0.0021095881 0.0037944326 -0.0037755705 0.01539745 0.01081138 -0.009883814 -0.005714063 -0.0049621854
0.008955348 0.006000689 -0.00843343 -0.0073848036 -0.0031186307 -0.0029931362 -0.011525374 0.009147322
-0.01857588 0.006631634 0.0014869056 -0.011169704 -0.010909814 -0.004313798 0.010073692 0.0096605085
-0.0026714343 -0.009070358 -0.00845897 0.026328277 0.013101764 -0.02869608 -0.032770947 0.0018309522
0.008848159 0.008546982 -0.0022847739 0.006144886 -0.0045510065 -0.0012604923 -0.0090570245 0.006982957
-0.003203416 0.0020078565 -0.00083145517 0.0057087825 -0.0011902722 0.015330826 -0.016831845 0.02095914
0.0058565503 0.0098944 -0.0067731063 0.011599011 0.010932563 0.010820472 0.01222606 -0.0037437116
0.0004451822 0.026789036 0.010255207 -0.0021063932 -0.0115014305 -0.004447733 -0.00088551326 0.0079574175
0.0023390462 0.023962155 0.015785612 -0.004085248 0.0011349672 -0.0023885784 0.00070118957 0.0141381705
0.008139933 -0.008140739 -0.019995648 -0.004484881 -0.0026840765 0.0032075848 0.0057250895 -0.01173325
0.0046141366 -0.00036117045 -0.00545179 -0.00042452812 0.017989159 0.0064742295 -0.004825624 -0.0046594096
0.008976271 -0.012136062 0.0037296817 0.008531473 0.0063448893 -0.010440293 0.01613345 -0.010548274
0.0021847398 0.0073374812 -0.0062091877 1.6946286e-05 0.003940765 -0.001581262 0.027974887 0.009143926
0.003411192 -0.009010106 -0.010618129 -0.01349364 -0.001349882 0.006906092 0.010414951 -5.7968224e-05
-0.007172663 -0.0015417179 -0.011052694 -0.02189225 0.009511083 9.039161e-05 -0.00040143557 0.01610986
-0.014530431 0.020290207 -0.006577949 0.008985997 0.004808877 0.0072497805 -0.009440592 0.011874443
-0.010705639 -0.0027002841 0.0042643007 -0.007235416 0.0013038665 0.014151465 -0.00096756924 -0.0027716241
0.014372122 0.027846606 -0.014753041 0.01747765 0.008351161 0.0070740557 0.0044120215 0.018007936
0.011044913 0.009558319 -0.008801881 0.006293389 -0.025223691 -0.0011940927 0.005168525 -0.010379697
0.014640748 0.013675285 -0.010097558 0.0027239127 -0.00019445094 0.008509692 0.0008836391 0.0064387335
-0.010625426 0.006769328 -0.00013262455 -0.00193271 0.009536272 -0.0017723734 0.007782711 -0.0038378604
-0.0042699506 0.004910959 0.008974567 3.9738643e-05 -0.007759542 0.00547853 0.012319911 -0.008274152
0.0014470392 0.009692885 0.008497042 0.0129765505 0.0073938128 0.01735602 -0.016581865 0.002532531
0.017934514 -0.0013499144 0.009987714 -0.002082043 0.02057385 -0.0048410124 -0.017771617 0.0024342055
0.006599124 0.0033566763 0.017290171 0.006592918 0.013025547 0.0027544007 -0.008098326 -0.0034290177
-0.010384458 0.0012205372 0.007520083 -0.0033380887 -0.013929815 0.0033210558 0.001353165 -0.007857795
-0.018901318 -0.012346984 -0.011215624 0.004563896 0.032797072 -0.003978928 -0.010839673 0.009476608
0.0054724296 0.013368435 0.0023543 0.013204948 -0.00049394276 0.00038555503 0.018018989 -0.002109352
0.024085868 -0.0077516497 0.017365772 -0.008626426 0.00021585375 -0.0054608313 0.0034825013 0.0023709277
00000000: 1a07 4d3b abf1 86bc f785 0bbc ac48 8cbb
00000010: 20e6 f83b 64dd 8b3c edf5 bdbc ad51 7a3b
00000020: 734e 75bb 99c0 24bb f5f3 a7ba 117a 553c
00000030: 0bbb 9337 79d8 353b 1873 16bc 4292 e93b
00000040: 756a a03b 94d1 88bc 7128 82bc b27e adbb
00000050: 7b15 06bb ecae 30bc df1c 9abc 6efd 06bc
00000060: 0441 0a3b 04ac 783b 906f 77bb 9645 7c3c
00000070: 3722 313c b8ef 21bc 093d bbbb d499 a2bb
00000080: 74b9 123c 6ea1 c43b 5f2c 0abc 39fc f1bb
00000090: f161 4cbb 7e28 44bb ecd4 3cbc a6de 153c
000000a0: 722c 98bc 2e4e d93b 46e4 c23a 2201 37bc
000000b0: 14bf 32bc c35a 8dbb 200c 253c 1c47 1e3c
000000c0: 3b13 2fbb d79b 14bc 7e97 0abc 66ae d73c
000000d0: c8a8 563c 0b14 ebbc d43a 06bd 90fc ef3a
000000e0: def7 103c a408 0c3c 25bc 15bb 0a5b c93b
000000f0: 9c20 95bb 1a37 a5ba ea63 14bc 4ad1 e43b
00000100: 67f0 51bb 3e96 033b 03f6 59ba bd10 bb3b
00000110: e802 9cba 252e 7b3c f0e2 89bc 81b2 ab3c
00000120: 4ee8 bf3b 1f1c 223c eff0 ddbb c709 3e3c
00000130: 7e1e 333c 5948 313c d04f 483c 0f59 75bb
00000140: 5867 e939 ae74 db3c 7505 283c 6a0b 0abb
00000150: 7f70 3cbc 4abe 91bb ca21 68ba d45f 023c
00000160: af4a 193b 484c c43c d450 813c 8bdd 85bb
00000170: 2ec3 943a b289 1cbb 09d0 373a c9a3 673c
00000180: 5b5d 053c bc60 05bc eacd a3bc e9f5 92bb
00000190: 55e7 2fbb 5836 523b 8899 bb3b d13c 40bc
000001a0: 2f32 973b 7a5b bdb9 eea4 b2bb 3393 deb9
000001b0: 005e 933c c625 d43b 4520 9ebb f6ad 98bb
000001c0: 3611 133c 55d6 46bc ad6d 743b 97c7 0b3c
000001d0: cae8 cf3b c30d 2bbc 4c2a 843c abd2 2cbc
000001e0: da2d 0f3b 416f f03b 7176 cbbb df27 8e37
000001f0: 8821 813b 5942 cfba 972b e53c 68d0 153c
00000200: 4e8e 5f3b 209f 13bc a9f7 2dbc 6e14 5dbc
00000210: 86ee b0ba 804c e23b 78a3 2a3c e822 73b8
00000220: a908 ebbb 7813 caba 5c16 35bc 6057 b3bc
00000230: 60d4 1b3c a090 bd38 c577 d2b9 d3f8 833c
00000240: 0b11 6ebc a637 a63c d68b d7bb 013a 133c
00000250: c993 9d3b 918f ed3b b6ac 1abc 068d 423c
00000260: b466 2fbc 40f7 30bb 8cbb 8b3b 1217 edbb
00000270: 80e6 aa3a 8cdb 673c 79a4 7dba 23a4 35bb
00000280: 0c79 6b3c 911e e43c bdb6 71bc 4a2d 8f3c
00000290: 4fd3 083c 7bcd e73b b892 903b 6185 933c
000002a0: b9f5 343c 7f9a 1c3c c435 10bc c638 ce3b
000002b0: eaa1 cebc 1a83 9cba bb5c a93b 9b0f 2abc
000002c0: bfdf 6f3c 4d0e 603c 3a70 25bc ac83 323b
000002d0: 87e5 4bb9 3c6c 0b3c 04a4 673a 03fc d23b
000002e0: 4416 2ebc 3dd1 dd3b 2211 0bb9 fc52 fdba
000002f0: 063e 1c3c fc4e e8ba 1d06 ff3b 9d84 7bbb
00000300: f1ea 8bbb 1cec a03b 100a 133c 0bad 2638
00000310: c243 febb 3e85 b33b 74d9 493c 4f90 07bc
00000320: 94aa bd3a e8ce 1e3c 2d37 0b3c 999b 543c
00000330: cc47 f23b 362e 8e3c b1d6 87bc d2f8 253b
00000340: 67eb 923c 9cef b0ba 82a3 233c e372 08bb
00000350: 7e8a a83c 5ba1 9ebb c895 91bc 3187 1f3b
00000360: 773d d83b affb 5b3b 1ea4 8d3c 6809 d83b
00000370: 1b69 553c 2d83 343b d7ae 04bc 5fb9 60bb
00000380: 9323 2abc 6ffa 9f3a 076b f63b d6c3 5abb
00000390: e139 64bc 12a6 593b af5c b13a fbbd 00bc
000003a0: f0d6 9abc 014b 4abc bdc1 37bc bc8c 953b
000003b0: 3956 063d ab61 82bb e298 31bc c643 1b3c
000003c0: 1152 b33b 4807 5b3c 9a4a 1a3b 9159 583c
000003d0: f07b 01ba 5224 ca39 8f9c 933c 0e3d 0abb
000003e0: ba4f c53c 8d01 febb aa42 8e3c da55 0dbc
000003f0: cd56 6239 c6f0 b2bb ad3a 643b 9161 1b3b

bias f4 [10]
-0.0018931755 0.16021611 -0.048182383 0.06415788 -0.12638082 -0.0018010935 0.06954398 0.16887325
-0.07934301 0.3420569
00000000: 6e24 f8ba b10f 243e e45a 45bd 3565 833d
00000010: f969 01be ab12 ecba 136d 8e3d 1ced 2c3e
00000020: 977e a2bd 1522 af3e
